bitmoji_cnn_augmented.pt (torch, 177000 bytes, 7 tensors)

weight f4 [8, 3, 5, 5]
0.0267056 0.0093741175 -0.06075731 0.061627183 -0.00467228 -0.052848887 0.05807049 -0.06391861
-0.02581044 -0.024526844 -0.0786282 -0.010010226 -0.08061615 0.052772414 0.05957187 -0.07426556
0.019771758 -0.12472286 -0.019284923 -0.083665445 -0.06928288 -0.08020839 0.056102425 -0.02593712
-0.070735596 0.09358224 0.05726419 0.04166972 -0.06714192 0.03164071 0.032529756 -0.016905261
0.03179547 -0.060474906 -0.10180758 0.07135951 0.049613595 0.17666249 0.027631436 0.08539126
-0.05124805 0.05873772 0.15188694 -0.03240902 0.014875374 0.085373476 -0.004502705 0.10059633
-0.021783167 0.124555536 0.08209422 0.09429916 -0.05056319 0.11204775 0.11084765 -0.004516178
0.15880096 0.13964418 -0.053165063 0.0015635376 0.13639955 0.13209403 0.16708039 0.038461026
0.07265562 0.0030447664 0.15107971 0.2044184 0.21772699 0.061363447 0.12457882 -0.011818627
0.13264382 0.16205843 -0.053303603 0.06674191 0.041059937 -0.017739387 -0.0068610148 0.042973682
0.06449294 0.038489074 -0.039721128 0.063572586 -0.03856451 0.038091823 -0.11577387 0.06994705
0.045682427 0.0067611216 -0.07807707 0.06423268 -0.07130817 -0.08064102 0.040381655 -0.046816096
0.015664916 -0.08438598 -0.044764422 0.026290499 0.07530098 -0.022163559 0.08218417 0.13113062
0.084444076 0.12663761 -0.05138017 -0.051619202 0.0070472765 0.08019155 -0.0021547184 -0.1670153
-0.065215126 0.0008521337 0.037429363 -0.036939785 0.010801178 -0.11063755 0.014600539 -0.056063715
-0.07455026 -0.02847089 -0.07781893 0.067768544 0.060435187 -0.009513776 0.06286391 0.05286563
0.046072133 0.062489353 -0.06523516 -0.12671721 0.043099426 -0.099179685 -0.04300195 -0.19399884
-0.26211274 -0.20832498 -0.0713497 0.066960715 -0.2112723 -0.32640168 -0.37726676 -0.20944567
0.006620016 -0.28774792 -0.26570076 -0.29329425 -0.10148576 0.0021261552 -0.03948832 -0.029556375
-0.04201648 0.037762254 0.1629201 -0.022297861 0.090670004 -0.110803 -0.1338046 0.13129254
0.09458193 0.034608547 -0.13240647 -0.23332794 -0.033829413 0.09175034 -0.025537407 -0.1772074
-0.28457963 -0.17011015 0.12074372 -0.10504925 -0.21722229 -0.14827661 -0.030489925 -0.0033861822
0.08973939 -0.036032014 0.04607512 -0.05449247 0.06728231 0.044746432 -0.036255836 0.05271087
-0.028515127 -0.045382112 0.06996168 0.028516855 0.015286152 -0.04797726 -0.07844711 0.020335875
-0.05716736 -0.09931 -0.13864428 -0.005196127 0.016386688 -0.13588344 -0.14753993 0.13227047
-0.0196505 0.06338152 -0.0041804477 0.015725711 0.13415812 0.07271354 0.041368067 -0.093532905
0.05802415 -0.05274397 -0.09243186 0.045616142 0.07395147 -0.0805387 0.081392355 -0.06793908
-0.038651865 -0.06756341 -0.011608402 0.05468213 -0.0057622083 -0.01699655 -0.0010474614 0.017544074
0.077700496 -0.07024701 0.10722413 0.062580526 0.118585125 0.15367068 0.093062595 0.14927514
0.07052544 -0.06850337 0.046770956 0.05220967 0.13623798 -0.05469185 0.016614564 0.118189275
-0.031064576 -0.044579715 -0.07889836 0.11101601 0.09201109 0.035845336 -0.11635678 -0.12098664
-0.058560103 -0.06911127 0.030705247 -0.083773896 0.039669126 0.07726806 -0.0663835 0.06379494
00000000: b4c5 da3c e695 193c a8dc 78bd c96c 7c3d
00000010: ed19 99bb 1378 58bd 52db 6d3d c3e7 82bd
00000020: 6a70 d3bc 85ec c8bc d207 a1bd ee01 24bc
00000030: 141a a5bd e327 583d a201 743d 8b18 98bd
00000040: 62f8 a13c b36e ffbd 6afb 9dbc ca58 abbd
00000050: 2fe4 8dbd 4c44 a4bd a8cb 653d 157a d4bc
00000060: d3dd 90bd 0ca8 bf3d db8d 6a3d dead 2a3d
00000070: b481 89bd b099 013d ec3d 053d e77c 8abc
00000080: f73b 023d 89b4 77bd 7e80 d0bd ef24 923d
00000090: a037 4b3d 03e7 343e 525b e23c 9de1 ae3d
000000a0: 7ae9 51bd f796 703d 4088 1b3e 52bf 04bd
000000b0: d7b7 733c 4ad8 ae3d 6d8b 93bb 7305 ce3d
000000c0: 9d72 b2bc f916 ff3d 0421 a83d eb1f c13d
000000d0: 591b 4fbd 4a79 e53d 1804 e33d 72fc 93bb
000000e0: b89c 223e e2fe 0e3e 9cc3 59bd 9eef cc3a
000000f0: 53ac 0b3e a843 073e 1f17 2b3e 4f89 1d3d
00000100: 78cc 943d b48a 473b a4b4 1a3e 0f53 513e
00000110: d3f3 5e3e 3d58 7b3d 2e23 ff3d eaa2 41bc
00000120: c8d3 073e a5f2 253e e154 5abd fcaf 883d
00000130: 772e 283d 3152 91bc 5dd2 e0bb 2c05 303d
00000140: e014 843d b8a6 1d3d 9fb2 22bd 5832 823d
00000150: d2f5 1dbd 2c06 1c3d da1a edbd 6640 8f3d
00000160: 7f1d 3b3d 668c dd3b dfe6 9fbd 6c8c 833d
00000170: 050a 92bd 1e27 a5bd 3c67 253d 3cc2 3fbd
00000180: b653 803c 8fd2 acbd e65a 37bd 2c5f d73c
00000190: 6637 9a3d 5a90 b5bc 2d50 a83d 1b47 063e
000001a0: 04f1 ac3d 4aad 013e 0374 52bd a86e 53bd
000001b0: d7ec e63b 783b a43d 2d36 0dbb 0f06 2bbe
000001c0: 828f 85bd b961 5f3a 884f 193d 2c4e 17bd
000001d0: 6df7 303c f195 e2bd 1937 6f3c 11a3 65bd
000001e0: cfad 98bd c93b e9bc 885f 9fbd 3cca 8a3d
000001f0: e38a 773d abdf 1bbc cbbe 803d a189 583d
00000200: 22b6 3c3d d6f4 7f3d 039a 85bd 28c2 01be
00000210: 0689 303d b81e cbbd d022 30bd a2a7 46be
00000220: a433 86be 2553 55be cb1f 92bd b322 893d
00000230: c457 58be 1f1e a7be 1c29 c1be ed78 56be
00000240: b8ec d83b b253 93be ee09 88be aa2a 96be
00000250: c4d7 cfbd f756 0b3b 81be 21bd 3620 f2bc
00000260: 7919 2cbd 98ac 1a3d 87d4 263e 01aa b6bc
00000270: 32b1 b93d afec e2bd 1304 09be 8d71 063e
00000280: 2cb4 c13d b1c1 0d3d 9095 07be 85ed 6ebe
00000290: b690 0abd 9ae7 bb3d d333 d1bc db75 35be
000002a0: 6cb4 91be 5b31 2ebe 7c48 f73d 1024 d7bd
000002b0: 856f 5ebe d3d5 17be 02c6 f9bc b6ea 5dbb
000002c0: 49c9 b73d 4e96 13bd 44b9 3c3d 7f33 5fbd
000002d0: 4fcb 893d 0948 373d 0081 14bd 5ae7 573d
000002e0: 8e98 e9bc 98e2 39bd 1248 8f3d 2e9c e93c
000002f0: c572 7a3c ce83 44bd e1a8 a0bd 6c97 a63c
00000300: 5228 6abd 0b63 cbbd c4f8 0dbe 4644 aabb
00000310: 603d 863c 0725 0bbe b514 17be e971 073e
00000320: 16fa a0bc 2cce 813d 23fc 88bb 35d3 803c
00000330: bf60 093e d6ea 943d 9071 293d 2e8e bfbd
00000340: bbaa 6d3d 100a 58bd ea4c bdbd fed7 3a3d
00000350: de73 973d 79f1 a4bd 09b1 a63d a523 8bbd
00000360: 6b51 1ebd af5e 8abd 2b31 3ebc 5ffa 5f3d
00000370: e8d0 bcbb 593c 8bbc f94a 89ba 97b8 8f3c
00000380: 7021 9f3d aadd 8fbd 5398 db3d 382a 803d
00000390: c2dc f23d d95b 1d3e 9a97 be3d 95db 183e
000003a0: a46f 903d 7f4b 8cbd e792 3f3d cfd9 553d
000003b0: f881 0b3e 9004 60bd 441b 883c 380d f23d
000003c0: 237b febc 3899 36bd 7795 a1bd 5d5c e33d
000003d0: 4f70 bc3d 8fd2 123d 774c eebd d8c7 f7bd
000003e0: b8dc 6fbd 368a 8dbd 9289 fb3c a691 abbd
000003f0: 187c 223d b73e 9e3d 13f4 87bd eca6 823d

bias f4 [8]
-0.16740102 0.25686264 0.3002656 0.1373018 -0.056315426 -0.16477373 0.08791186 -0.08665523
00000000: 2c6b 2bbe 8083 833e 6abc 993e d898 0c3e
00000010: 01ab 66bd 72ba 28be 220b b43d 4c78 b1bd

weight f4 [4, 8, 3, 3]
0.05586442 0.037216276 -0.039142605 -0.120873205 -0.07408772 0.023669701 0.049651947 -0.007995599
-0.04042035 -0.3084054 -0.26423156 -0.09778266 -0.28128666 -0.26399356 -0.034548763 -0.047390256
-0.08877016 0.097085275 -0.1748556 0.07109625 -0.07120941 -0.08501747 0.10608878 -0.06346762
-0.14189929 0.25129512 0.043932613 -0.11082552 -0.12271016 0.029184164 0.016582053 0.04633378
0.07357953 0.19698925 -0.0075612017 0.04367851 -0.14858297 -0.18789406 -0.18043557 -0.064129874
-0.103590004 -0.10563779 -0.074287474 -0.04327487 -0.018801859 0.057740614 0.05052044 0.14816524
0.14070497 -0.025634937 -0.0390817 0.005753397 0.1341733 0.08837918 -0.07210642 0.2503477
0.20701733 -0.11646073 0.0129113 0.19504642 -0.07403312 0.031422798 0.10344373 -0.1775486
-0.2109963 -0.0962368 -0.10603708 -0.2438096 -0.10277599 -0.11325724 -0.1433851 -0.12885523
0.15469864 0.07980779 -0.05290649 -0.049482554 -0.07559994 -0.0668633 -0.08590607 -0.027861055
0.035804253 0.04598481 0.1757808 0.0011791957 0.23177098 0.14050627 0.21141727 -0.00057938264
0.12005349 0.17610335 -0.054632414 0.28355607 0.24170244 -0.123878695 0.01903443 0.090837546
-0.33994958 -0.075668566 -0.027006987 0.22951 0.07484982 0.14081274 0.16137193 -0.01122602
0.10138601 0.0070338775 -0.12962013 -0.060733806 -0.05825615 0.020291034 -0.14416485 0.11600515
0.07794478 -0.049550537 0.017259171 0.15004128 -0.009169768 0.020470807 0.16212343 -0.011599627
-0.06949831 -0.068369046 0.08514689 -0.19524153 -0.20121518 -0.18875994 -0.034855578 -0.03452999
0.052543253 0.29226103 -0.01036379 0.3060182 0.055883855 0.08367026 0.29162887 0.07553067
-0.01589736 -0.014300165 -0.009570806 -0.05534034 -0.07177389 -0.13821138 -0.0696547 -0.22083019
0.024240782 0.067903526 -0.11407311 -0.012782441 -0.18591247 -0.08494656 0.12501782 -0.14802253
-0.119443804 -0.25554293 -0.11842569 -0.12575315 -0.11721631 -0.2876789 -0.40351748 -0.3619298
-0.30147246 -0.37289953 0.15495153 0.35840404 0.38227943 0.40830016 0.3137532 0.46816027
0.23831725 0.34528857 0.52019864 0.03221426 -0.015726324 0.10833166 -0.0057638283 0.09426031
0.15210858 0.00418218 -0.024442298 -0.0520583 -0.084319904 -0.10005038 -0.008804515 0.084630094
-0.03836726 -0.29230544 -0.012842627 -0.29048088 -0.5300254 0.012353584 0.021162182 0.10215905
0.14647703 -0.07754614 -0.021603646 0.08155605 -0.029392164 -0.088351406 -0.30429262 -0.37179285
-0.11952462 -0.25998938 -0.2966996 -0.20318817 -0.0823287 -0.036658406 -0.3413921 -0.1671214
-0.26104206 -0.020290254 -0.2860908 -0.2990924 -0.14753905 -0.3004743 -0.14976496 -0.2610597
0.019446211 -0.05846421 0.053786293 -0.19552378 -0.1183777 0.032575034 -0.21257664 -0.03935957
0.010756286 -0.22879902 -0.20370042 -0.14169224 -0.24251947 -0.32194948 -0.23138708 -0.22504726
-0.34836337 -0.15097332 0.3739881 0.26720777 -0.023570463 0.27286592 0.319222 0.16528961
0.4248584 0.3645049 0.23207498 0.04354006 0.009918391 0.117211804 0.030760089 0.037455734
0.14700127 0.15386347 0.02579239 0.18611212 -0.3169351 -0.081931114 0.04987916 -0.18346255
00000000: 17d2 643d 1870 183d ff53 20bd 5f8c f7bd
00000010: 4dbb 97bd f6e6 c13c d75f 4b3d f9ff 02bc
00000020: cf8f 25bd 50e7 9dbe 5c49 87be 4642 c8bd
00000030: ce04 90be 2a2a 87be 0183 0dbd 491c 42bd
00000040: 21cd b5bd a5d4 c63d 590d 33be e99a 913d
00000050: 3dd6 91bd a41d aebd 1345 d93d 50fb 81bd
00000060: 0c4e 11be c1a9 803e aff2 333d 7df8 e2bd
00000070: 774f fbbd a113 ef3c 16d7 873c 7dc8 3d3d
00000080: ddb0 963d 8db7 493e f5c3 f7bb 3de8 323d
00000090: 2226 18be 4d67 40be 1ac4 38be 8656 83bd
000000a0: ff26 d4bd a058 d8bd 0824 98bd fd40 31bd
000000b0: 5b06 9abc 6c81 6c3d 85ee 4e3d a1b8 173e
000000c0: f714 103e 5c00 d2bc 2214 20bd fe86 bc3b
000000d0: ba64 093e 2500 b53d 88ac 93bd 932d 803e
000000e0: 5afc 533e f782 eebd eb89 533c 40ba 473e
000000f0: ad9e 97bd 31b5 003d 4eda d33d 4dcf 35be
00000100: 6a0f 58be cd17 c5bd f829 d9bd 39a9 79be
00000110: 387c d2bd 69f3 e7bd 8bd3 12be a0f2 03be
00000120: 5269 1e3e 4472 a33d 7ab4 58bd 38ae 4abd
00000130: 24d4 9abd a0ef 88bd 86ef afbd de3c e4bc
00000140: 7ba7 123d 915a 3c3d e2ff 333e 3e8f 9a3a
00000150: 5f55 6d3e e0e0 0f3e c57d 583e b6e1 17ba
00000160: 9bde f53d 7054 343e 3dc6 5fbd 432e 913e
00000170: d880 773e 1db4 fdbd 18ee 9b3c 0909 ba3d
00000180: df0d aebe 1ff8 9abd c23d ddbc ab04 6b3e
00000190: dd4a 993d 3731 103e af3e 253e 57ed 37bc
000001a0: 78a3 cf3d 717c e63b 24bb 04be 03c4 78bd
000001b0: 009e 6ebd 6239 a63c f39f 13be 1c94 ed3d
000001c0: 83a1 9f3d 81f5 4abd 1b63 8d3c 6ca4 193e
000001d0: cb3c 16bc 65b2 a73c af03 263e 5d0c 3ebc
000001e0: 2155 8ebd 1205 8cbd 7e61 ae3d 65ed 47be
000001f0: 5a0b 4ebe 494a 41be b9c4 0ebd 526f 0dbd
00000200: 9837 573d 3da3 953e e3cc 29bc 6bae 9c3e
00000210: 78e6 643d 505b ab3d 6150 953e d3af 9a3d
00000220: 2e3b 82bc 3d4b 6abc dfce 1cbc 8dac 62bd
00000230: 30fe 92bd 4987 0dbe 20a7 8ebd 4f21 62be
00000240: 9b94 c63c 0111 8b3d 2a9f e9bd 726d 51bc
00000250: d75f 3ebe 76f8 adbd ac04 003e 3893 17be
00000260: f49e f4bd 86d6 82be 2b89 f2bd 6fc5 00be
00000270: 1b0f f0bd a64a 93be d899 cebe dd4e b9be
00000280: 995a 9abe b0ec bebe 9dab 1e3e bc80 b73e
00000290: 21ba c33e b80c d13e 42a4 a03e b4b2 ef3e
000002a0: 7009 743e aac9 b03e bd2b 053f 1af3 033d
000002b0: 7ed4 80bc fddc dd3d 7fde bcbb 8d0b c13d
000002c0: 5ac2 1b3e ab0a 893b 373b c8bc 153b 55bd
000002d0: eaaf acbd 37e7 ccbd d040 10bc 8b52 ad3d
000002e0: fd26 1dbd 0fa9 95be e269 52bc e9b9 94be
000002f0: bfaf 07bf b066 4a3c 505c ad3c c438 d13d
00000300: 13fe 153e 83d0 9ebd 21fa b0bc dc06 a73d
00000310: d6c7 f0bc 95f1 b4bd 3ecc 9bbe a25b bebe
00000320: 53c9 f4bd 541d 85be 03e9 97be 8f10 50be
00000330: f39b a8bd 2027 16bd f2ca aebe df21 2bbe
00000340: 4ea7 85be bf37 a6bc 7e7a 92be a422 99be
00000350: 7a14 17be c4d7 99be fc5b 19be 9ea9 85be
00000360: a94d 9f3c 2b78 6fbd 044f 5c3d 6337 48be
00000370: 0270 f2bd 666d 053d b1ad 59be 8037 21bd
00000380: 223b 303c 4a4a 6abe d896 50be c517 11be
00000390: 0657 78be 90d6 a4be bcf0 6cbe ca72 66be
000003a0: af5c b2be c098 1abe 5e7b bf3e 75cf 883e
000003b0: d816 c1bc 15b5 8b3e 1171 a33e ae41 293e
000003c0: 0a87 d93e 63a0 ba3e 10a5 6d3e 1057 323d
000003d0: bf80 223c be0c f03d 95fc fb3c 2f6b 193d
000003e0: 8087 163e 638e 1d3e 904a d33c 2d94 3e3e
000003f0: 5145 a2be 80cb a7bd 174e 4c3d 9bdd 3bbe

bias f4 [4]
-0.10628405 0.056465633 0.08333243 0.052267276
00000000: 74ab d9bd 8248 673d 31aa aa3d 3616 563d

weight f4 [128, 324]
-0.07075227 0.0070247133 0.030405533 0.0154650435 -0.032410014 -0.013405958 0.0050840913 -0.00721783
-0.02160784 -0.031150274 -0.019671956 -0.05964085 0.0098255165 -0.04158638 0.013245863 -0.04644189
-0.032258764 -0.018972483 -0.035561014 -0.0051521463 -0.004592306 -0.021845534 -0.005753311 -0.0024380807
-0.045726717 0.029319063 -0.0654624 -0.021867195 -0.06379149 -0.020370238 0.000985572 -0.027094305
0.001922698 -0.007445547 -0.042611055 -0.047933858 0.017961191 -0.005775993 -0.0059106466 -0.0037191962
-0.04717575 -0.015289047 -0.061447356 -0.01673004 -0.015591682 -0.036747128 -0.034293737 -0.07760636
0.015615381 -0.021549115 -0.07671844 0.018890196 0.030930607 -0.00899707 -0.036969375 -0.016170017
0.016867256 0.00917117 0.013988433 -0.02692019 -0.031198177 0.004023831 0.009676841 0.014425171
0.020673335 -0.029157607 0.0068261893 -0.015160524 0.020155165 -0.06319519 0.016247181 -0.055916905
-0.075486936 -0.056771353 -0.019237751 -0.031039454 -0.025410788 -0.058581464 -0.04454632 -0.06791483
-0.035114326 0.008863044 0.032261036 -0.050744504 -0.031809427 -0.052124195 -0.038403984 -0.058703195
0.025061756 0.030800613 0.042865112 -0.0052105277 -0.000400689 -0.025580585 -0.07223027 -0.046691902
0.03804722 -0.004492965 -0.03854471 -0.014611522 -0.03991734 0.021431232 0.010736673 0.027811019
0.025780328 -0.042591885 -0.05386239 -0.008555544 -0.03154079 -0.041570794 -0.016803062 0.01877759
-0.028152304 -0.042998012 0.016453853 -0.056281384 -0.056671146 -0.014917132 -0.048795428 -0.043485343
-0.0019827695 0.0073412806 -0.029806938 0.0077565582 -0.009916204 -0.032295074 -0.048399042 -0.025414368
-0.03477376 0.017273864 -0.058231417 0.038446184 -0.011719527 -0.046370186 0.036904242 -0.043443922
-0.020865021 0.012759571 -0.051729746 0.0048260577 -0.007937846 0.044742566 -0.015156942 0.02690857
0.03327699 -0.044730972 -0.046763647 0.049985945 0.042133626 0.03446855 0.01470914 -0.045204718
-0.04750108 -0.010428709 -0.011178574 -0.035731897 -0.04355075 0.00182699 0.055580184 -0.009158971
0.018635347 -0.013571905 -0.03673083 -0.048003733 -0.0047868164 -0.055470303 -0.020617504 -0.0006545533
-0.034331586 -0.050988074 -0.05389057 -0.05843647 -0.0461221 -0.030368142 0.000926545 -0.048691902
0.0003379889 -0.03163511 -0.017769916 0.028889202 -0.034657344 -0.019518087 -0.024743047 0.02746966
-0.053930696 0.036260214 0.011385566 -0.0372245 -0.05743918 0.021165675 -0.03910821 -0.055686157
0.002144306 0.011520037 -0.025758663 -0.009780039 0.016771752 0.038863685 -0.045566894 -0.012224838
0.025930654 0.017255032 -0.0028139171 -0.013282249 -0.016116979 -0.066572815 0.030730635 0.019270457
-0.04207623 -0.0061667785 -0.068177514 0.003576938 0.028077899 0.018334996 -0.03352615 0.019294413
0.015024148 -0.025394857 -0.023746092 0.010941112 -0.0035371662 0.025623081 -0.037288822 0.026203372
0.02095095 -0.012737575 -0.04599574 0.010660734 -0.06543703 -0.060019597 0.024530938 0.017933115
-0.04704416 0.025833553 -0.024832422 0.02402029 -0.026782755 0.018715093 -0.01422318 -0.034594852
-0.026352271 -0.0621773 -0.045193754 -0.044070154 -0.051401004 0.0097559495 0.02944059 0.030838178
0.03876544 -0.0062343 0.00997937 0.0230412 -0.013487918 0.03248956 -0.044295806 -0.017652914
00000000: 91e6 90bd 912f e63b 0615 f93c 1861 7d3c
00000010: 5dc0 04bd aaa4 5bbc 7398 a63b 8c83 ecbb
00000020: ed02 b1bc dc2e ffbc 1527 a1bc f749 74bd
00000030: 34fb 203c 7b56 2abd 2d05 593c da39 3ebd
00000040: c421 04bd 2e6c 9bbc 6da8 11bd 56d3 a8bb
00000050: 0e7b 96bb 68f5 b2bc 4586 bcbb 35c8 1fbb
00000060: f04b 3bbd 882e f03c 2711 86bd d522 b3bc
00000070: 1da5 82bd 7cdf a6bc 4f2e 813a e0f4 ddbc
00000080: 0a03 fc3a c6f9 f3bb ee88 2ebd 4b56 44bd
00000090: 5923 933c 8b44 bdbb 19ae c1bb c2bd 73bb
000000a0: 5c3b 41bd e97e 7abc 39b0 7bbd 700d 89bc
000000b0: 4174 7fbc 2884 16bd 9777 0cbd 15f0 9ebd
000000c0: a8d7 7f3c c587 b0bc 8f1e 9dbd 9dbf 9a3c
000000d0: 2f62 fd3c 7268 13bc 336d 17bd fc76 84bc
000000e0: 332d 8a3c ad42 163c be2f 653c bb87 dcbc
000000f0: 5293 ffbc 57da 833b 9d8b 1e3c 8d57 6c3c
00000100: 205b a93c efdb eebc 3aae df3b d963 78bc
00000110: 721c a53c 7b6c 81bd cf18 853c 2009 65bd
00000120: e598 9abd 1489 68bd 7d98 9dbc 7446 febc
00000130: 492a d0bc 1ef3 6fbd 3476 36bd ee16 8bbd
00000140: 0ad4 0fbd 4d36 113c 2624 043d 78d9 4fbd
00000150: 9a4a 02bd 2e80 55bd 7f4d 1dbd c372 70bd
00000160: 504e cd3c 9151 fc3c 5493 2f3d 13bd aabb
00000170: 9113 d2b9 608e d1bc 77ed 93bd 0240 3fbd
00000180: 67d7 1b3d b939 93bb 0fe1 1dbd 2a65 6fbc
00000190: 5d80 23bd 8d90 af3c dfe8 2f3c efd3 e33c
000001a0: 4431 d33c d474 2ebd cf9e 5cbd 8d2c 0cbc
000001b0: ea30 01bd 2346 2abd 93a6 89bc 76d3 993c
000001c0: a99f e6bc af1e 30bd 3bca 863c 4f87 66bd
000001d0: 0120 68bd fd66 74bc b7dd 47bd b01d 32bd
000001e0: 5af1 01bb 208f f03b ae2d f4bc ba2a fe3b
000001f0: 9377 22bc d747 04bd 133e 46bd cb31 d0bc
00000200: ee6e 0ebd eb81 8d3c 1184 6ebd bf79 1d3d
00000210: 4203 40bc aaee 3dbd e728 173d 41f2 31bd
00000220: 1fed aabc 850d 513c 92e2 53bd e823 9e3b
00000230: bd0d 02bc fb43 373d d354 78bc 5d6f dc3c
00000240: 744d 083d d337 37bd 3d8b 3fbd 10be 4c3d
00000250: 4f94 2c3d e52e 0d3d 9bfe 703c 9528 39bd
00000260: 7e90 42bd 2ddd 2abc 5626 37bc 9c5b 12bd
00000270: 4562 32bd 9d77 ef3a 0ca8 633d 820f 16bc
00000280: 28a9 983c b25c 5ebc 1173 16bd 909f 44bd
00000290: bada 9cbb d434 63bd 0ae6 a8bc 5496 2bba
000002a0: 479f 0cbd dfd8 50bd 5cbc 5cbd 145b 6fbd
000002b0: 87ea 3cbd 9cc6 f8bc 62e3 723a 2971 47bd
000002c0: 1a34 b139 d193 01bd 3792 91bc 0ca9 ec3c
000002d0: dcf4 0dbd 65e4 9fbc eeb1 cabc 0d08 e13c
000002e0: 6fe6 5cbd 9785 143d 868a 3a3c b878 18bd
000002f0: 5845 6bbd a363 ad3c ee2f 20bd 2b17 64bd
00000300: 7c87 0c3b 8abe 3c3c d503 d3bc 753c 20bc
00000310: ea64 893c 872f 1f3d 5aa4 3abd b04a 48bc
00000320: 866c d43c 6d5a 8d3c b269 38bb ca9d 59bc
00000330: c107 84bc 5457 88bd d0be fb3c 14dd 9d3c
00000340: 2058 2cbd b012 cabb a7a0 8bbd 106b 6a3b
00000350: 9f03 e63c 4633 963c b752 09bd 510f 9e3c
00000360: d827 763c e008 d0bc 2a87 c2bc 5a42 333c
00000370: cdcf 67bb 7fe7 d13c 2abc 18bd 74a8 d63c
00000380: 54a1 ab3c 43b1 50bc 0766 3cbd 5caa 2e3c
00000390: d903 86bd 1cd7 75bd 1bf5 c83c 78e8 923c
000003a0: 61b1 40bd e3a0 d33c 5d6d cbbc 33c6 c43c
000003b0: 8267 dbbc 6550 993c 5708 69bc 55b3 0dbd
000003c0: b8e0 d7bc a0ad 7ebd 161d 39bd e882 34bd
000003d0: dc89 52bd 6bd7 1f3c 642d f13c 59a0 fc3c
000003e0: 83c8 1e3d 1949 ccbb 8380 233c e6c0 bc3c
000003f0: 6efc 5cbc c613 053d 856f 35bd d89c 90bc

bias f4 [128]
-0.044271674 -0.03868531 -0.0077146227 -0.04737281 -0.06395591 0.09910062 0.14188394 -0.013850754
0.09197472 0.10074699 -0.02736929 -0.025666198 0.021126373 -0.026619533 -0.016633559 0.12719305
-0.044213068 0.101168364 0.029746998 0.00709848 -0.0610728 -0.0394308 0.10154212 0.10851942
0.09346376 -0.072898686 0.042883977 -0.029974094 -0.047355648 -0.01330585 0.060843427 -0.05356496
0.04607625 0.009923874 -0.058700394 -0.031067993 0.0054354537 -0.05871708 0.029794056 0.013709512
-0.05004908 -0.0011139096 -0.03134036 -0.045605622 -0.028992005 0.09714109 0.12571874 -0.052932642
0.084584676 0.14111257 0.10535179 -0.03597081 -0.03586893 0.056970257 -0.031883113 0.016783383
0.12568682 0.09492114 0.008496606 -0.0010625878 -0.07598836 0.12069868 0.018291308 -0.024239965
-0.037276547 0.09386081 -0.05718023 0.11065637 -0.0054139285 -0.04852112 0.023824425 0.005643182
-0.02991192 0.017572891 -0.078710735 0.11781267 0.07181288 0.043415442 -0.0016724576 -0.012166316
0.014573198 -0.05759316 -0.06276445 -0.010404606 -0.007951277 0.07664438 0.07575199 -0.054930743
0.06682731 0.0483334 -0.011411939 0.10455687 0.08463519 0.0971274 0.15299098 -0.05640808
0.11307506 0.13939065 0.06660336 0.08414703 0.030440664 -0.0101479795 0.0927244 -0.03423047
-0.044484023 0.08994852 0.12166825 0.13111454 0.14061679 0.088275075 0.0061670323 -0.0048068548
-0.012940912 -0.028378293 -0.16741197 -0.05480239 -0.03877871 -0.024191724 -0.059446666 -0.029592736
0.028831953 0.03297271 0.106829 -0.01862847 -0.049012996 0.035116296 -0.024920875 -0.017692482
00000000: 3756 35bd 7d74 1ebd f2ca fcbb fe09 42bd
00000010: 51fb 82bd 44f5 ca3d 064a 113e 46ee 62bc
00000020: 3e5d bc3d 7054 ce3d 9035 e0bc eb41 d2bc
00000030: 3711 ad3c 3511 dabc 1a43 88bc e53e 023e
00000040: c318 35bd 5c31 cf3d faaf f33c 5e9a e83b
00000050: 7927 7abd 3182 21bd 51f5 cf3d 6e3f de3d
00000060: ee69 bf3d e84b 95bd 1ca7 2f3d 3b8c f5bc
00000070: fff7 41bd c800 5abc f536 793d ee66 5bbd
00000080: 73ba 3c3d bf97 223c d36f 70bd 4e82 febc
00000090: e41b b23b 5281 70bd aa12 f43c dc9d 603c
000000a0: 4400 4dbd 9b00 92ba c05e 00bd f6cc 3abd
000000b0: a480 edbc e8f1 c63d 6abc 003e e6cf 58bd
000000c0: bb3a ad3d d07f 103e aec2 d73d 2156 13bd
000000d0: 4deb 12bd a559 693d de97 02bd 4e7d 893c
000000e0: 0cb4 003e 0466 c23d 5935 0b3c 8846 8bba
000000f0: c99f 9bbd df30 f73d a7d7 953c e492 c6bc
00000100: 4baf 18bd 193a c03d d135 6abd cf9f e23d
00000110: 5367 b1bb 15be 46bd 712b c33c 71ea b83b
00000120: d809 f5bc 06f5 8f3c 1833 a1bd c547 f13d
00000130: a212 933d 64d4 313d 5d36 dbba 3a55 47bc
00000140: 6cc4 6e3c cee6 6bbd a68a 80bd 1578 2abc
00000150: 1346 02bc bbf7 9c3d dc23 9b3d 0fff 60bd
00000160: c2dc 883d 3ef9 453d 24f9 3abc ea21 d63d
00000170: 3755 ad3d bbea c63d aba9 1c3e 290c 67bd
00000180: e693 e73d 6cbc 0e3e 5867 883d 4755 ac3d
00000190: b35e f93c b643 26bc 4ae6 bd3d 4035 0cbd
000001a0: e134 36bd ee36 b83d 342d f93d e442 063e
000001b0: d9fd 0f3e 90c9 b43d d114 ca3b d282 9dbb
000001c0: 1e06 54bc 9879 e8bc 0b6e 2bbe 7978 60bd
000001d0: 6dd6 1ebd b92d c6bc 597e 73bd 776c f2bc
000001e0: fd30 ec3c 640e 073d 2ac9 da3d bc9a 98bc
000001f0: dac1 48bd 1bd6 0f3d dd26 ccbc d3ef 90bc

weight f4 [1, 128]
-0.016036939 -0.0955024 0.09366283 0.0039446717 0.033301372 -0.52477264 0.1791941 -0.40950757
0.21876305 0.12863594 -0.09931387 0.030052083 -0.17718174 -0.06395855 -0.04726333 0.20106788
-0.0004189803 0.15272582 0.12556848 0.40459782 0.0032180527 -0.017794969 0.1982624 0.14823215
0.1281785 0.03235268 -0.19879939 -0.06249656 0.0039673457 -0.19370718 0.1098661 -0.040572807
-0.4815894 -0.026369195 -0.008808594 0.019255606 -0.014449418 0.036457717 -0.36048725 -0.2338526
0.026963081 -0.6720365 0.073529884 0.0006234695 0.004516017 0.20739663 0.14252086 0.004681484
0.22289202 0.17146581 0.09924589 -0.083705835 -0.27794078 0.10866594 -0.0355324 -0.0006531658
0.18551537 0.1881193 -0.49868476 -0.097254835 -0.007301987 0.1610193 -0.13634443 -0.1953703
-0.0018864209 0.16232304 -0.069968 0.15440798 -0.17844765 -0.049113423 -0.28713992 -0.2910465
0.18596064 -0.16116668 0.054747317 0.19205016 0.35601366 0.18936142 -0.18574095 0.048208132
0.15815204 -0.06257253 0.009767512 -0.39409724 -0.05278731 0.1557003 0.12918018 0.07966267
0.20754717 0.14554238 -0.030527424 0.16473489 0.13938011 0.13231798 0.18615843 -0.07410364
0.13975869 0.114303075 0.1425042 0.19238707 0.2816422 -0.1561885 0.12528974 0.021649579
-0.10944949 0.17898841 0.18556432 0.12251435 0.16705725 0.32333022 -0.28377482 0.053618666
-0.08797006 -0.20468457 -0.2653407 -0.045721795 0.05500143 0.0074649802 0.047243945 0.27485037
-0.031302527 -0.1369289 0.1494869 -0.01881249 -0.07251948 -0.36616012 -0.10158121 0.004237771
00000000: e65f 83bc c396 c3bd 4cd2 bf3d 4e42 813b
00000010: 0567 083d 8057 06bf a87e 373e faaa d1be
00000020: 6c03 603e 24b9 033e 1265 cbbd c92f f63c
00000030: 216f 35be b3fc 82bd 3297 41bd bde4 4d3e
00000040: 95aa dbb9 2864 1c3e 0695 003e 7227 cf3e
00000050: f7e5 523b c1c6 91bc 4c05 4b3e 2bca 173e
00000060: 3a41 033e 3e84 043d 1192 4bbe 65fc 7fbd
00000070: 8200 823b 2d5b 46be 7a01 e13d ac2f 26bd
00000080: e392 f6be 3604 d8bc ec51 10bc efbd 9d3c
00000090: 40bd 6cbc b054 153d c991 b8be 0e77 6fbe
000000a0: aee1 dc3c 960a 2cbf d696 963d 5470 233a
000000b0: 19fb 933b c85f 543e fdf0 113e 2267 993b
000000c0: ce3d 643e bc94 2f3e 6e41 cb3d f76d abbd
000000d0: 414e 8ebe 408c de3d 6c8a 11bd 3739 2bba
000000e0: bef7 3d3e 59a2 403e 9c53 ffbe 8b2d c7bd
000000f0: 8245 efbb 3ee2 243e e09d 0bbe 270f 48be
00000100: c841 f7ba 0338 263e 624b 8fbd 201d 1e3e
00000110: fbba 36be 282b 49bd 0104 93be 0c04 95be
00000120: 776c 3e3e e108 25be b93e 603d cca8 443e
00000130: 6c47 b63e f6e7 413e e032 3ebe e475 453d
00000140: 9cf2 213e 0726 80bd ea07 203c 1dc7 c9be
00000150: 8237 58bd e66f 1f3e cf47 043e 2f26 a33d
00000160: 3f87 543e 1009 153e a614 fabc 43b0 283e
00000170: a9b9 0e3e 5d7e 073e 51a0 3e3e a6c3 97bd
00000180: e71c 0f3e bb17 ea3d 9fec 113e 1e01 453e
00000190: 6833 903e e1ef 1fbe f44b 003e 755a b13c
000001a0: 0e27 e0bd bd48 373e 9304 3e3e cee8 fa3d
000001b0: 0e11 2b3e 8a8b a53e ef4a 91be 3f9f 5b3d
000001c0: a629 b4bd d598 51be bcda 87be c746 3bbd
000001d0: 2e49 613d cb9c f43b de82 413d 30b9 8c3e
000001e0: 1437 00bd 1737 0cbe 1813 193e a71c 9abc
000001f0: 1885 94bd 5779 bbbe cf09 d0bd 00dd 8a3b
