Lab6Model.pt (torch, 16028 bytes, 6 tensors)

weight f4 [8, 1, 3, 3]
0	0x3c037879	0.008024328
1	0x3f61b121	0.881609
2	0x3b6e7963	0.003638827
3	0x3f16610f	0.5874185
4	0x3e80c4ed	0.25150242
5	0xbf6ed8f7	-0.9329981
6	0x3f417eba	0.75583994
7	0xbecbb103	-0.39783487
8	0xbf7b4a7c	-0.9816053
9	0x3e3846fc	0.17995828
10	0x3eae4804	0.3403932
11	0x3e4f7f24	0.20263344
12	0xbea3d564	-0.31998742
13	0xbed937eb	-0.42425475
14	0x3f5f6ebc	0.8727834
15	0xbf675e26	-0.90378034
16	0xbebe92d7	-0.37221405
17	0x3faed403	1.3658451
18	0xbf3e3e84	-0.7431414
19	0xbf201022	-0.62524617
20	0xbf1eae2a	-0.61984503
21	0xbe32212e	-0.1739547
22	0xbe560d0b	-0.20903413
23	0x3ed191d6	0.40931576
24	0x3f773808	0.9656987
25	0x3f425c45	0.7592204
26	0x3ebe4a39	0.37166002
27	0xbeabee16	-0.33580083
28	0xbe048cc1	-0.12944318
29	0xbf04fda7	-0.5194954
30	0xbe208d33	-0.15678863
31	0xbf0f63d9	-0.5601173
32	0xbe9ad62e	-0.3024153
33	0xbf094509	-0.53620964
34	0xbe2f7621	-0.17134906
35	0x3eb25602	0.34831244
36	0xbf2d4abc	-0.6769216
37	0xbdb730bf	-0.089448445
38	0x3f021866	0.5081848
39	0x3f33e537	0.7027163
40	0x3f64a4c8	0.89313936
41	0x3f03a4dc	0.5142343
42	0x3dc8deeb	0.09808143
43	0xbf559a6a	-0.8343874
44	0xbf098c34	-0.5372956
45	0x3f02a943	0.5103952
46	0x3e5b4a39	0.21415032
47	0xbeb6e407	-0.35720846
48	0x3e302dd6	0.17204985
49	0xbe55d401	-0.20881654
50	0xbe707810	-0.234833
51	0xbf832f99	-1.0248901
52	0xbf0f80c4	-0.56055856
53	0xbe696a26	-0.22794399
54	0x3f446147	0.76710933
55	0x3f433f0f	0.76268095
56	0x3f10c263	0.5654661
57	0xbefe759d	-0.49699107
58	0x3e0ce7a0	0.13760233
59	0x3f4476b3	0.7674362
60	0xbf5a51c0	-0.8528099
61	0xbf5e9c66	-0.86957395
62	0xbea95d1c	-0.3307885
63	0xbb0dbe7d	-0.0021628432
64	0x3f072c53	0.5280201
65	0x3ef9335d	0.48672
66	0xbe3b5f04	-0.18297964
67	0x3ea8ddbf	0.3298168
68	0xbe373586	-0.17891511
69	0x3eb29cd5	0.34885278
70	0x3eeb93da	0.4601124
71	0x3ed4da64	0.4157287

bias f4 [8]
0	0x3d208e99	0.03919849
1	0x3ea8237e	0.32839578
2	0xbd358a83	-0.04432155
3	0xbf29f469	-0.66388565
4	0x3ecf0de6	0.4044029
5	0xbeaadb2a	-0.33370334
6	0x3d24aa62	0.040201552
7	0x3f009f56	0.5024313

weight f4 [16, 8, 3, 3]
0	0xbe286578	-0.16444957
1	0xbc941918	-0.018078372
2	0x3e44de96	0.19225535
3	0xbe97e84c	-0.29669416
4	0xbb6c2add	-0.003603629
5	0x3d953764	0.072859555
6	0x3efb437a	0.49074918
7	0x3dfb2b9d	0.12264178
8	0x3e2c7060	0.16839743
9	0xbd925d48	-0.07146698
10	0x3e03fc94	0.1288932
11	0x3eb5d1da	0.35511667
12	0xbdb15c37	-0.08660167
13	0x3eb0b345	0.34511772
14	0xbdf74cf9	-0.12075228
15	0x3e1a6f21	0.15081455
16	0x3e9371ca	0.28797752
17	0xbe8f717c	-0.2801627
18	0x3c9f3436	0.019434076
19	0xbeb9b29f	-0.3626909
20	0xbe4f400b	-0.20239274
21	0xbcb967d7	-0.022632523
22	0xbef1be4b	-0.47215495
23	0xbddfb5d5	-0.109233536
24	0x3dbb5d47	0.091486506
25	0xbe7a98aa	-0.24472299
26	0xbe6a907b	-0.22906677
27	0x3de12cef	0.109948985
28	0xbe4980be	-0.19678017
29	0xbe2740e2	-0.16333345
30	0x3de8736c	0.1135014
31	0x3dcc4cf4	0.09975615
32	0xbe9d39f7	-0.30708286
33	0x3e54b5a8	0.20772421
34	0x3c8a5ba0	0.016889393
35	0xbdb35d2d	-0.08758006
36	0xbd951aa8	-0.07280475
37	0xbea0bcb7	-0.31393978
38	0x3ef39ecb	0.47582087
39	0xbd4013d9	-0.04689393
40	0x3df843f4	0.12122336
41	0x3e4365cc	0.19081801
42	0xbce138d7	-0.027492924
43	0xbd840c22	-0.06447627
44	0xbec0b54c	-0.3763832
45	0x3e8817dd	0.26580706
46	0xbd25398f	-0.040338095
47	0xbe91c7ef	-0.2847285
48	0x3eaabf3c	0.33349025
49	0xbea07350	-0.31337976
50	0xbcae994e	-0.021313336
51	0x3eab9b61	0.33516982
52	0x3e24a1c6	0.16077337
53	0xbe6ce16f	-0.23132871
54	0xbe279023	-0.16363578
55	0xbc2d9bb2	-0.010596203
56	0xbeec4eed	-0.46153966
57	0xbe1d226a	-0.15345159
58	0xbe84eb76	-0.25960892
59	0xbec7c8b3	-0.3902031
60	0xbdd8427b	-0.10559555
61	0xbeb4d2cb	-0.35317072
62	0xbe7554e5	-0.23958166
63	0x3e7aea22	0.24503377
64	0x3ea3eb04	0.3201524
65	0x3ec8f589	0.39249828
66	0xbeab4af1	-0.33455613
67	0x3e8dadaa	0.27671558
68	0x3e9744fd	0.2954482
69	0x3e0c96f4	0.13729459
70	0x3e9e91f2	0.30970722
71	0x3d0565da	0.032567836
72	0x3e9bf738	0.3046205
73	0xbe1ceaa6	-0.15323886
74	0xbe974c13	-0.29550228
75	0xbdf74d49	-0.12075288
76	0x3e7551ca	0.23956981
77	0x3e0e3051	0.13885619
78	0x3eabdd60	0.33567333
79	0x3eec1a53	0.46113834
80	0x3f1ce67b	0.61289185
81	0xbe192f46	-0.1495944
82	0x3e13a197	0.1441711
83	0x3f0bc400	0.5459595
84	0x3e217d17	0.15770374
85	0x3dffad19	0.12484188
86	0x3f0379b5	0.51357585
87	0xbddcd550	-0.10782874
88	0xbe2b8de0	-0.1675334
89	0xbf25ab56	-0.6471456
90	0xbc481270	-0.012211427
91	0x3e44eb07	0.19230281
92	0x3dba8da5	0.09109048
93	0xbe0daed6	-0.13836226
94	0x3e56ee5f	0.20989369
95	0xbe134181	-0.14380457
96	0x3ee74115	0.4516684
97	0x3dcfbf8f	0.10143959
98	0xbe9e3b73	-0.3090473
99	0x3d8661ff	0.0656166
100	0xbe1ea58d	-0.1549284
101	0x3cf9ec73	0.030508256
102	0xbe9753f8	-0.2955625
103	0xbeaed91e	-0.34150022
104	0xbe75bb54	-0.23997241
105	0xbe8d8eef	-0.27648112
106	0x3d468ef3	0.04847617
107	0xbf0587fe	-0.5216063
108	0x3e08837a	0.13331404
109	0x3b82b7c2	0.003989191
110	0xbdaebeab	-0.08532461
111	0x3e214439	0.15748681
112	0x3e4d3555	0.20039876
113	0xbd00c63b	-0.031439047
114	0x3e9ce663	0.3064452
115	0x3e9b5ad6	0.3034274
116	0x3ec7b66c	0.39006364
117	0x3d023bad	0.031795193
118	0xbe32ab65	-0.17448194
119	0xbe662752	-0.22475937
120	0xbec0dcb0	-0.3766837
121	0xbded9c9e	-0.11602138
122	0x3e133a72	0.14377764
123	0x3e02aa63	0.1276031
124	0x3ebddcf8	0.37082648
125	0x3ef27578	0.47355247
126	0xbd47adba	-0.048749663
127	0x3e80c819	0.25152662
128	0xbe074b5e	-0.13212344
129	0x3d42e2b8	0.047579497
130	0xbecfae6e	-0.40562767
131	0xbf46911c	-0.7756517
132	0xbf0700bb	-0.5273549
133	0xbece1b3a	-0.40255147
134	0xbee04769	-0.43804482
135	0xbdea7690	-0.11448395
136	0xbe6bc13c	-0.23022932
137	0xbe1211a4	-0.14264542
138	0xbd1340c6	-0.035950445
139	0x3cb0146b	0.021494111
140	0x3ecfde53	0.40599307
141	0xbe6f0b87	-0.23344241
142	0x3e576f1d	0.2103848
143	0x3ed012f1	0.4063945
144	0xbe65f8bd	-0.22458167
145	0x3df827d5	0.12116972
146	0x3e3ba7e9	0.18325771
147	0xbd8a6c8d	-0.06758986
148	0xbee1e19f	-0.44117448
149	0xbe169b4c	-0.14707679
150	0xbea12633	-0.31474456
151	0xbe9a082a	-0.30084354
152	0xbee58d77	-0.44834492
153	0xbdef2d1b	-0.11678525
154	0xbd0310b7	-0.031998362
155	0xbe010513	-0.12599592
156	0x3e16c327	0.14722882
157	0xbed3e82f	-0.4138808
158	0xbe2f4dc2	-0.17119506
159	0xbe97e116	-0.29663914
160	0x3c5d73ad	0.013516349
161	0xbe999fa6	-0.30004615
162	0x3e380de5	0.1797405
163	0xbbdab910	-0.006674893
164	0xbb492601	-0.0030692818
165	0x3debe22e	0.1151775
166	0xbe6ffc44	-0.23436075
167	0x3e6b58b2	0.22983053
168	0x3ecfe159	0.40601614
169	0x3da2ab96	0.07942884
170	0x3dda4836	0.106583044
171	0x3e5512e8	0.20807993
172	0x3db7544e	0.08951627
173	0xbe07354c	-0.13203925
174	0x3db709b4	0.089373976
175	0xbe48d729	-0.19613327
176	0xbe14999e	-0.14511725
177	0xbe962e89	-0.29332379
178	0xbe022fc4	-0.12713534
179	0xbd92fc08	-0.071769774
180	0x3ea762e4	0.32692635
181	0xbe61a1de	-0.22034404
182	0x3e6acd42	0.22929862
183	0x3ccdd10b	0.025124094
184	0xbb986ba6	-0.0046515046
185	0x3e1ce11f	0.15320252
186	0x3dd9edb5	0.10641042
187	0x3e70c67a	0.23513213
188	0x3f2d38aa	0.6766459
189	0x3d889467	0.066689305
190	0xbda987c6	-0.0827785
191	0x3dfb1b28	0.12261039
192	0x3e6529a2	0.22379163
193	0xbeaed278	-0.3414495
194	0xbc340870	-0.01098834
195	0x3ea34950	0.3189187
196	0xbdf0d230	-0.1175884
197	0xbc8f2292	-0.01747254
198	0x3df49d57	0.11944073
199	0xbeb33faa	-0.3500951
200	0xbcd569b1	-0.026051374
201	0x3f1baea6	0.6081337
202	0x3f07f28e	0.53104484
203	0xbda6cfca	-0.08145101
204	0x3ed0a5fe	0.40751642
205	0x3f083c59	0.53217083
206	0x3f2964e8	0.66169596
207	0xbea3ea4c	-0.32014692
208	0xbe3d613f	-0.18494128
209	0xbd00c9aa	-0.03144232
210	0x3d388b2d	0.045054603
211	0xbe916939	-0.2840059
212	0xbe4ad4fe	-0.19807813
213	0x3efab3ee	0.489654
214	0xbe191036	-0.1494759
215	0xbe8467d1	-0.25860456
216	0x3e955089	0.29163006
217	0xbe0739c8	-0.13205636
218	0xbe8fffcc	-0.28124845
219	0xbe30f170	-0.17279601
220	0x3ccb9aa6	0.024854016
221	0xbe17fc6f	-0.1484239
222	0x3e2d84bf	0.1694517
223	0x3ec80be6	0.39071578
224	0x3e5a81c9	0.21338572
225	0xbe7b8d37	-0.24565588
226	0xbe64c462	-0.22340539
227	0x3e2b0f4e	0.16705057
228	0x3d029e3c	0.031889185
229	0xbe8a736c	-0.27041185
230	0xbe025d62	-0.12730935
231	0x3f0c5132	0.54811394
232	0x3f4841f2	0.78225625
233	0x3df0d94f	0.11760198
234	0x3edbdbf8	0.4294126
235	0xbe6bff27	-0.23046552
236	0xbdec6248	-0.11542183
237	0x3e2cf932	0.16891935
238	0x3eebb697	0.46037742
239	0xbe339124	-0.17535836
240	0xbe9c559f	-0.30534074
241	0x3c257cdf	0.010100572
242	0x3de01c3c	0.10942885
243	0x3e08ef78	0.133726
244	0xbd05dd00	-0.032681465
245	0x3e15bc99	0.14622726
246	0xbdedcd75	-0.116114534
247	0xbd283a6a	-0.041071333
248	0x3db1fba6	0.08690576
249	0xbed0cfae	-0.40783447
250	0xbe05c21b	-0.13062327
251	0x3c435b01	0.0119235525
252	0x3d4d3c0b	0.05010609
253	0x3d8b5598	0.06803435
254	0x3e14f414	0.14546233
255	0xbd3f427d	-0.046694268

bias f4 [16]
0	0x3d849e86	0.064755484
1	0xbd18dffd	-0.037322987
2	0x3eea716b	0.45789656
3	0x3e59cc23	0.21269278
4	0x3dc187df	0.094497435
5	0xbe26ae03	-0.16277318
6	0x3d2562a0	0.04037726
7	0xbd924a93	-0.0714313
8	0x3da07ee0	0.078366995
9	0x3e1acb8f	0.15116714
10	0x3dac89f9	0.08424754
11	0x3e933bb6	0.28756493
12	0xbbd5178e	-0.006503052
13	0xba940ed2	-0.0011295921
14	0xbda3505f	-0.07974314
15	0x3e860f0e	0.2618336

weight f4 [10, 144]
0	0xbe586e7f	-0.21135901
1	0xbe379e5f	-0.17931508
2	0xbe1785d3	-0.14797144
3	0xbe87b15f	-0.2650251
4	0x3e6919e7	0.22763787
5	0x3e25adbf	0.1617956
6	0x3e816f11	0.2528005
7	0xbd8b919b	-0.068148814
8	0x3d83842a	0.06421693
9	0x3c89af43	0.016807204
10	0xbdae57cf	-0.08512842
11	0xbc8f4dc4	-0.017493136
12	0x3e7e9987	0.24863254
13	0xbe587305	-0.21137626
14	0xbd86d194	-0.065829426
15	0xbd51d94d	-0.051232625
16	0x3c49d747	0.0123193925
17	0x3ed5bcdb	0.41745648
18	0x3eff0067	0.49804994
19	0xbe70f048	-0.2352916
20	0x3d8604c7	0.0654388
21	0xbe952c85	-0.29135528
22	0xbe85b66d	-0.26115742
23	0xbd79c558	-0.060979217
24	0xbd8ca51a	-0.06867428
25	0x3d349bd9	0.04409394
26	0x3e0bed68	0.13664782
27	0xbc65ea2c	-0.014032882
28	0xbcd4f4d6	-0.025995653
29	0x3e7513e7	0.23933373
30	0xbe79443f	-0.2434244
31	0xbe1159a6	-0.14194354
32	0x3e0f70f4	0.14007932
33	0xbe9b66df	-0.30351922
34	0x3eaa2ec8	0.33238816
35	0xbe1b9a45	-0.15195568
36	0xbe621f38	-0.22082222
37	0xbeee2f36	-0.46520394
38	0xbe72f6e0	-0.23726988
39	0xbd46bdbb	-0.048520785
40	0xbdef3563	-0.116801046
41	0xbd8e452a	-0.06946786
42	0x3e538b91	0.20658709
43	0xbdb5e3c3	-0.08881333
44	0xbecd90de	-0.40149587
45	0xbdcae828	-0.099075615
46	0x3e8aa921	0.2708216
47	0x3ea99bf6	0.331268
48	0x3f0d9634	0.55307317
49	0x3ee2eb55	0.4432017
50	0x3e206fbf	0.15667628
51	0x3ad1637a	0.0015975081
52	0x3d2e1195	0.042497236
53	0xbf88cd35	-1.0687624
54	0x3d91d607	0.071209006
55	0xbd883ce2	-0.066522375
56	0x3b0b4ce0	0.0021255538
57	0xbca21d5c	-0.01978939
58	0xbd2cfefe	-0.042235367
59	0x3d28456d	0.041081835
60	0xbc61f018	-0.013790153
61	0xbd10b2be	-0.03532671
62	0x3d25ea66	0.040506743
63	0xbeb6b97b	-0.35688385
64	0x3cfa37ae	0.030544128
65	0x3c800f4c	0.015632294
66	0x3e577d6e	0.21043941
67	0xbd2a8824	-0.04163374
68	0xbec1991d	-0.3781213
69	0xbc8d0493	-0.017214095
70	0xbf35ca50	-0.7101183
71	0xbe9b0174	-0.30274546
72	0xbc5dccc0	-0.013537586
73	0xbee0c943	-0.4390355
74	0x3e5131d9	0.20429172
75	0xbe1d0e82	-0.15337566
76	0x3e061d1f	0.13097046
77	0x3f1b49a7	0.6065926
78	0x3e8adf22	0.27123362
79	0xbe138930	-0.14407802
80	0xbf10752d	-0.56428796
81	0x3e571a51	0.21006133
82	0xbde5739a	-0.1120369
83	0x3dd7106b	0.10501178
84	0x3e209252	0.15680817
85	0x3e0f8866	0.14016876
86	0x3da2d8db	0.07951518
87	0xbd8df286	-0.06931023
88	0xbd42a53f	-0.047520872
89	0xbe4ba63d	-0.19887634
90	0xbdb4f365	-0.08835486
91	0xbe6bf87f	-0.23044012
92	0xbe6069d3	-0.21915369
93	0xbda0755c	-0.078348845
94	0xbee1b6be	-0.44084734
95	0xbd76f3c7	-0.060291078
96	0x3da50455	0.08057467
97	0xbe9d247f	-0.30691907
98	0xbd28c886	-0.04120686
99	0x3c8fb90a	0.017544288
100	0xbebdf607	-0.37101766
101	0xbe02e915	-0.12784226
102	0x3e8c731b	0.27431569
103	0x3df48989	0.11940295
104	0xbe910e38	-0.2833116
105	0x3f27df9d	0.6557558
106	0xbeaa829f	-0.3330278
107	0x3ee71203	0.4513093
108	0xbe2b70ab	-0.16742198
109	0xbe7f8e96	-0.24956736
110	0xbe80f5cd	-0.2518753
111	0xbed1b24a	-0.40956336
112	0xbe7c6436	-0.24647602
113	0xbe8b1b3b	-0.27169213
114	0xbf038ff2	-0.5139152
115	0xbf21a7f8	-0.63146925
116	0x3ee48b69	0.44637612
117	0x3eca1866	0.3947174
118	0x3d00b39d	0.031421293
119	0xbe247966	-0.16061935
120	0x3db7eefb	0.08981129
121	0x3d763496	0.060108744
122	0xbeccbe2f	-0.3998885
123	0x3e94385f	0.28949258
124	0x3e443cb5	0.19163783
125	0xbcee9391	-0.0291231
126	0xbf4fdbc1	-0.8119469
127	0xbdb4f9fd	-0.08836744
128	0xbf48c555	-0.78426105
129	0xbd84799f	-0.0646851
130	0x3e339232	0.17536238
131	0xbee474b1	-0.44620278
132	0xbe9a12e9	-0.30092552
133	0xbdd3eb48	-0.10347611
134	0x3e553f26	0.2082487
135	0x3d8d7818	0.06907672
136	0x3e97bdd4	0.29637015
137	0x3e9d3868	0.30707097
138	0x3ccdfed0	0.025145918
139	0x3e24c701	0.16091539
140	0xbccb536b	-0.02482005
141	0x3e907aad	0.28218594
142	0x3d36dfa9	0.044646893
143	0xbed01a70	-0.4064517
144	0xbf918a5f	-1.1370353
145	0x3e7e7e51	0.24852873
146	0x3e898dc7	0.2686598
147	0xbe3948ea	-0.18094221
148	0x3d70a254	0.05874856
149	0x3e38c97f	0.18045615
150	0x3d91611e	0.07098602
151	0x3e2b14e8	0.16707194
152	0x3d62a331	0.055331413
153	0x3e4a2a9f	0.19742821
154	0xbe495ef0	-0.19665122
155	0x3e62fca8	0.22166693
156	0xbea98be8	-0.33114552
157	0xbd3454bf	-0.044026133
158	0x3daab5ca	0.08335455
159	0x3d9c2f78	0.076262414
160	0xbe35bd42	-0.17747977
161	0xbf093b7b	-0.53606385
162	0x3b8c34cf	0.004278756
163	0xbdf2dcb4	-0.11858502
164	0xbe6459e5	-0.22299917
165	0x3ee1040b	0.43948397
166	0xbeff9222	-0.49916178
167	0xbec97df2	-0.393539
168	0x3ee8d566	0.4547531
169	0xbd39bc9a	-0.04534588
170	0x3ed4af33	0.41539916
171	0x3f0550c0	0.5207634
172	0xbdb4d815	-0.08830277
173	0xbe797963	-0.24362712
174	0xbed3aeec	-0.41344392
175	0xbe8622d5	-0.2619845
176	0x3d8cf492	0.068825856
177	0x3e5d4ee1	0.21612121
178	0xbdbe84d7	-0.09302681
179	0xbe062a63	-0.13102107
180	0x3e53ce50	0.2068417
181	0x3ea99b28	0.33126187
182	0xbdcc1850	-0.09965575
183	0x3d86ab2f	0.065756194
184	0x3d8a41d9	0.06750841
185	0xbcc632a7	-0.024194075
186	0xbf2671b3	-0.6501724
187	0x3e4b0b95	0.19828637
188	0xbcfcc505	-0.030855665
189	0xbf83f43c	-1.030891
190	0x3d9486f4	0.07252303
191	0xbe695981	-0.2278805
192	0x3d9708bf	0.07374715
193	0xbe03afcf	-0.12860034
194	0xbe2dfa5f	-0.1699004
195	0x3e1d23cb	0.15345685
196	0xbe910adf	-0.28328606
197	0x3d11400a	0.035461463
198	0x3d442c66	0.047893904
199	0xbc6fb854	-0.01463135
200	0xbd6c3ea3	-0.057676923
201	0x3d908d39	0.07058186
202	0x3c992964	0.018696494
203	0xbd12b272	-0.03581471
204	0xbd354650	-0.04425651
205	0xbd25fb83	-0.040523063
206	0xbce324f0	-0.027727574
207	0xbfab84d8	-1.3399916
208	0xbe22c25a	-0.15894452
209	0x3a98c17d	0.0011654344
210	0xbf610991	-0.8790522
211	0xbdcd634b	-0.10028704
212	0x3a8d5f61	0.0010785871
213	0xbf17390e	-0.59071434
214	0xbf29e76b	-0.6636874
215	0xbe915c7b	-0.2839087
216	0x3e9cc9eb	0.306228
217	0x3e2e4142	0.17017081
218	0xbf0b945e	-0.54523265
219	0xbb87f37a	-0.0041488977
220	0x3d6c6e40	0.05772233
221	0xbe972bc8	-0.2952559
222	0xbeead30e	-0.45864147
223	0x3d5a2aa1	0.05326331
224	0x3f0a1c3d	0.5394934
225	0x3e0732f3	0.1320303
226	0x3ef134ef	0.47110698
227	0x3ec477f0	0.38372755
228	0xbd07a860	-0.03311956
229	0x3e7fa10c	0.24963778
230	0x3f0c9254	0.5491078
231	0x3ddfda1b	0.10930272
232	0x3eabef95	0.33581224
233	0x3e698c7b	0.22807495
234	0xbf143ed3	-0.5790836
235	0xbd7f0231	-0.06225795
236	0xbf10852e	-0.56453216
237	0xbdcdab71	-0.100424655
238	0xbe83f655	-0.25773874
239	0xbe08023a	-0.132821
240	0x3e0bd161	0.1365409
241	0xbed7e533	-0.42167053
242	0xbdbd2c83	-0.092370056
243	0xbc15ebcf	-0.009150459
244	0xbe1c0f48	-0.15240204
245	0x3d737e75	0.05944677
246	0x3d5aeeb3	0.053450298
247	0xbdadf3b4	-0.08493748
248	0x3e0b470e	0.13601324
249	0x3e89748e	0.26846737
250	0x3cc8b413	0.024499929
251	0xbed1a977	-0.40949604
252	0x3c2c0488	0.010499127
253	0x3e39e8a3	0.1815515
254	0x3e1f800d	0.15576191
255	0x3e27e476	0.16395745

bias f4 [10]
0	0x3f035d00	0.5131378
1	0x3f30f5ae	0.6912488
2	0x3dcfd1fc	0.10147473
3	0xbe47d876	-0.19516167
4	0xbf1746bf	-0.59092325
5	0x3cf214b3	0.029550886
6	0xbb54e0c2	-0.00324826
7	0x3df46812	0.11933912
8	0xbe1dd22d	-0.15412207
9	0xbe588e62	-0.21148065
