my_model.pt (torch, 173772 bytes, 7 tensors)

main.0.weight f4 [8, 3, 5, 5]
00000000: c2c9 f0bd a672 01be 5f3c d5bd 96bd a4bc
00000010: 5531 e03d fc31 3cbe 7118 22be 7c47 5f3d
00000020: 5569 adbd 1f21 b63c 27d2 0b3d 554a 50be
00000030: bc65 7e3c aeb0 e5bd bcc3 263c e6e7 a13d
00000040: 364c 823d f881 a5bd 6470 8b3c 5307 9a3c
00000050: 9176 a0bd c982 69bd 7864 b4bd 7fb7 57bb
00000060: b9ef 91bd 256a 06be f11b 83bd aef0 763d
00000070: 8185 abbc 5099 c63d 34d6 1abe 26cb 14be
00000080: bc71 95bd 5e60 9ebc 183d f13d 21a1 1dbe
00000090: 7875 4bbd 6e75 65bd f163 6ebd 7ee8 aa3d
000000a0: 5fd4 603d d217 d2bd 06e2 d03d 19db c9bb
000000b0: 127f db3d 5315 adbd d2c8 3fbb af4b e13d
000000c0: 67ac 093e 51ea c1bc 488b bebd 04b8 c6bd
000000d0: 0db9 a8bd f952 68bd f830 ef3d 32e0 94bd
000000e0: 27f7 33bc 2187 21bd a265 af3d 5af4 e73d
000000f0: 2179 683c d87b f3bc 82c5 8e3d 7c90 04bc
00000100: 4549 8ebd ce86 2b3d 6d5a 78bd 5f68 883d
00000110: 1200 9f3c ce50 033e 2a2f b03d 1459 ea3d
00000120: 2a0b 103d e928 3d3e 2091 14bd e08c 2f3c
00000130: fc6f 893d 84ea 9ebd 6037 113e 8780 823d
00000140: 9ee4 4fbd 2050 fd3d 6f48 4cbc 5e28 bebd
00000150: 027a 343d 5cb0 9d3d 5a31 ce3d 63fd a5bd
00000160: 4a7e 42bd fadb ae3b d7a5 d93b e999 44bd
00000170: ee91 c7bd 22a5 113e bdb1 043e 3dda 98bd
00000180: cd5b 8cbd 6236 f7bd fc39 1dbd 9ef9 83ba
00000190: 38b2 8a3d daaf ab3d 2583 8ebd ecdb eb3d
000001a0: fcde 4c3d 7d99 79bc 584f d9b8 0050 adbd
000001b0: 16d9 773d ca97 40bb d0e3 b33d de6f a43c
000001c0: 0e8e ddbd db59 9b3d a619 74bd 40b3 cabd
000001d0: caef f5bd 22d7 a63d 151a a93d 555f 883d
000001e0: 11fc 06be 1d0b debd 9bcb 6dbd d835 473d
000001f0: efdd 0bbd 8e8e ecbd fe4e 91bd dca8 613c
00000200: ff4a 4bbd 8060 91bd 94af 083e f6dd 6fbd
00000210: 5417 e2bc 2bd7 b5bd 96e1 14bd c59e 123c
00000220: cd00 023e 5895 31bd dde0 fd3d c4b2 1abd
00000230: e6c9 8dbd 7830 5b3d 923e a8bd 776a 123d
00000240: 559a 7a3b 2fb4 b3bd 410c ccbd dee2 babd
00000250: 0a6f 8c3d caf6 b43d 0530 063d 80b3 9c3d
00000260: 2f51 643d 090f 65bd 34e9 00be d89b f1bc
00000270: d1c8 e4bd 032f aabd 1e84 26be dc43 9f3c
00000280: 0e16 873d 3884 af3d 1566 07bd b69f c4bd
00000290: 9395 10be 9448 803d c01d c1bd ae97 403d
000002a0: be82 d9bd 83da 13be febc 65bd a0f9 8c3d
000002b0: c5c0 b0bc db1b afbc f094 9ebd 6225 453d
000002c0: 8a19 f63c 5947 8dbd 8a2a 19bd dd16 083d
000002d0: 40b8 fcbc 41ee f73c aa87 8ebc f75a 53bc
000002e0: 46de 93bd e4cd a63d 375c a0bd 656c b23d
000002f0: 48de 073e 3c64 d5bd a260 243d 3d37 8d3c
00000300: 3806 d9bc bc4c 9f3d 5194 ac3d b88d 7a3d
00000310: fbcc db3d ace2 0f3d 18df 23bd f765 b13d
00000320: 5702 4e3d 1d7c e13d e8ce 9f3d ab4b f23d
00000330: b8fb d53d f972 ed3d d8ac fcbc fa27 133e
00000340: a023 1bbc 05b1 de3c 0cc2 f33d 9ed3 c33b
00000350: 6b1a fd3d cb46 103e 693a a73d d3fc 2f3e
00000360: 15ad 603e ff2a 523e 49cb a2bc ed78 83bd
00000370: d870 5d3e 583c 243d a6de 883d 2979 b13d
00000380: 5210 e83b 4611 283d b6a9 dd3c 7f61 4cbe
00000390: 4bf6 9e3b 8bb3 263e 101a 463e be06 073e
000003a0: 2f5d 1bbe 0b60 45bd 42db f53d 03ed dcbb
000003b0: 639e 1bbe 341b 69be 53c2 09be 4b5e 1a3e
000003c0: 9de1 7ebd 9404 28be d704 2fbe feb1 a83d
000003d0: d1d8 ba3c ca00 19be 4640 2bbe bffc b1bd
000003e0: e399 21bd 23f9 bd3c f2b2 9f3d 6620 1abb
000003f0: 5e49 34bd 3e8a cfbb 431e 4abd c151 78bd
-0.11757232 -0.12641391 -0.104119055 -0.020109933 0.10946909 -0.18378443 -0.15829636 0.054511532
-0.08467356 0.02223259 0.034135964 -0.20340855 0.015527185 -0.112153396 0.010178503 0.07905559
0.06362192 -0.0808143 0.017021365 0.01880232 -0.07835115 -0.057009492 -0.088082254 -0.0032915769
-0.071258016 -0.13126428 -0.06401814 0.060288124 -0.020937683 0.09697211 -0.15120775 -0.1453062
-0.07297084 -0.01933306 0.11779231 -0.15393497 -0.049672574 -0.056020193 -0.05820078 0.083451256
0.054890033 -0.102584496 0.101993605 -0.0061601517 0.10717596 -0.08451333 -0.0029263985 0.110007636
0.13444673 -0.023671301 -0.093039095 -0.09703067 -0.08238421 -0.056719754 0.11679262 -0.07269324
-0.010984219 -0.03943551 0.08564307 0.11325903 0.014189036 -0.02972214 0.069712654 -0.008091088
-0.06947569 0.041876607 -0.06063311 0.06660532 0.019409213 0.12823793 0.08602746 0.114427716
0.035166897 0.18472637 -0.036271214 0.01071474 0.067108124 -0.07759574 0.1418128 0.06372171
-0.050755136 0.12368798 -0.012468441 -0.09285043 0.04406167 0.076996535 0.10068007 -0.0810497
-0.04748372 0.005336282 0.006642084 -0.047998343 -0.09744631 0.1422315 0.12958427 -0.07463501
-0.06853447 -0.120709196 -0.038385376 -0.0010068899 0.06772274 0.083831504 -0.069586076 0.11516556
0.050017342 -0.015234348 -0.00010362145 -0.084625244 0.060509764 -0.0029387348 0.08783686 0.020072874
-0.108181104 0.07585498 -0.059594773 -0.098974705 -0.12008627 0.08146502 0.08256928 0.06658808
-0.13182093 -0.108419634 -0.0580555 0.048635334 -0.0341472 -0.11550628 -0.07095145 0.013773169
-0.04963207 -0.07098484 0.13348228 -0.058561288 -0.027599014 -0.08878931 -0.036347948 0.008948986
0.12695618 -0.043355316 0.12396405 -0.03776814 -0.06923275 0.05351302 -0.08215059 0.035746064
0.0038238962 -0.08774602 -0.09963275 -0.09125303 0.068571165 0.08836134 0.03276064 0.076514244
0.055741485 -0.05592254 -0.1258896 -0.029493257 -0.11171115 -0.08309748 -0.16261336 0.019441538
0.065960035 0.085701406 -0.033056337 -0.09600775 -0.14119558 0.06263843 -0.094295025 0.047019653
-0.1062064 -0.14438824 -0.05608844 0.0688355 -0.021576295 -0.021375587 -0.07743251 0.048131354
0.030041475 -0.06898374 -0.037394084 0.03322493 -0.030849576 0.030264976 -0.017398674 -0.012900106
-0.0722013 0.08144739 -0.078300886 0.08712081 0.13268387 -0.10419509 0.04013122 0.017238254
-0.026492223 0.07778308 0.084267266 0.06117031 0.10732456 0.03512828 -0.04000768 0.086620264
0.0502952 0.11010001 0.07803136 0.11830839 0.10448402 0.11594195 -0.030844137 0.14370719
-0.009468943 0.027184019 0.11902246 0.0059761545 0.123585545 0.14089505 0.08165438 0.17186289
0.21941026 0.20524214 -0.019872325 -0.06419549 0.21625078 0.04009661 0.06683092 0.086656876
0.0070820237 0.0410321 0.027058464 -0.19959067 0.0048511378 0.16279428 0.1934588 0.13186166
-0.15172265 -0.048187297 0.12004711 -0.006742121 -0.15197138 -0.22764283 -0.13453035 0.15075032
-0.06222688 -0.16407996 -0.1709169 0.08237074 0.022808464 -0.14941707 -0.16723737 -0.086907856
-0.0394534 0.023190087 0.07797803 -0.0023517846 -0.04401528 -0.0063336184 -0.049345266 -0.06062484

main.0.bias f4 [8]
00000000: 522c 903e c984 533e e574 a5bb 974b 033e
00000010: 5030 3fbe bbe4 c6bd e0d8 6d3d 9992 963d
0.28158814 0.20656122 -0.0050493353 0.12821804 -0.18670774 -0.097115956 0.058068156 0.0735218

main.3.weight f4 [4, 8, 3, 3]
00000000: 2c09 8ebb a59c dc3d 78d8 603e ded9 183e
00000010: f291 e73d da06 753e 6f1e 353e 0443 403e
00000020: ccfa 9a3d 0f5d 0e3e d42f 4b3e dcd5 f83c
00000030: 3cad 443e 72f8 c43d c787 84bd bcb5 1c3d
00000040: bbcc 573d 224c 28be b675 16be d54e 5cbe
00000050: d786 22bd d079 26be 54ac dcbd c9df b2bd
00000060: 7103 2bbe d6ae 1e3d 4b89 da3c 5cf9 db3d
00000070: c9cb 4e3e ffc5 2f3e 1b22 9d3b 7fb1 703e
00000080: 85ac be3d be0c 3e3e 125b 483b 7a95 1ebe
00000090: 7df9 7ebd 9983 173d cb28 34bd 2f69 1dbe
000000a0: 50d2 9bbd 47e8 313d ef3c d83d f374 f03d
000000b0: 2e38 963c 8716 de3d 5b53 52bc 52ad 8ebd
000000c0: 5240 c8bd 3d03 0a3e abc4 b73c cdf0 8f3d
000000d0: 0a2b 63bd 16f0 02bd 5a29 5b3e 7afd 683e
000000e0: 5315 253e 6ed8 4b3e 4836 053e 1b7e 4d3d
000000f0: f118 5c3e fe96 533e d1d2 2cbe 0b85 ea3c
00000100: 7081 313e 18bc 483d 67e8 543e fc97 3d3e
00000110: f3a7 f23d 4a27 8e3e 6e21 6b3d 66c4 f7bd
00000120: ad0a 8b3d 9e06 acbd 5039 17bd 6c03 9b3c
00000130: 1613 c93d c188 d6bd 2039 b63b 6aef bf3d
00000140: 2581 9b3d 65ea 8d3a ed54 d8bc 8587 85bd
00000150: 696b a93d c28f 95bc 441c 453d 00dd b9bd
00000160: b13e 513d dd5d aabb 59c6 9b3c b186 6ebd
00000170: 58b5 edbd bd06 e9bd 875c 84bd d670 33bd
00000180: 57e9 7fbd def8 7f3d 1df7 c0bd 6cba a53c
00000190: 4671 85bb c870 15bc c25c ebbd 9ed4 df3c
000001a0: 733d eebd 5c06 c73c 7ab9 4ebd 705c e6bc
000001b0: fed9 dfbd 4b20 aebb a142 b03d c743 75bc
000001c0: 2aae f3bd f8b1 89bd 42bb 9fbd 0147 36bd
000001d0: 4521 9bbd 4ce9 eebd 1822 6fbd 7ab2 113d
000001e0: e97b ddbd 259b 8b3d 236a 83bd 21f5 efbd
000001f0: 5cef 20bd 0262 153d b251 e5bd 1f8c d7bd
00000200: 6680 863d 80d4 8d3d fe10 a7bd 2cb0 af3d
00000210: 73d4 a53d 9f35 aa3d 5da8 83bd b69f edbd
00000220: 7f02 763d 63a3 8fbd adf8 a53d 72fb 0d3c
00000230: 2dc5 02be 335d 02be 898c b6bd d035 9fbd
00000240: eab8 b83e d6bb c93e 822d 3c3e f546 9a3e
00000250: 986a 983e 6747 873e e425 d23e 47ac 763e
00000260: 2d44 e63d 3443 803e 987e c13e ed19 2a3e
00000270: f396 9f3e d562 0d3e eab3 4d3c 7748 293e
00000280: 7c60 1e3e 75c2 203e 30c9 983d 3506 743d
00000290: f511 21bd a887 573d 5f87 0039 cf15 91bd
000002a0: 44d7 b73d a0ba a7bd a807 42bd 56c9 d43e
000002b0: b503 ad3e 9ece 8a3e 309e bf3e 7fbe 043f
000002c0: 595c b83d 14e7 9d3e a979 ce3e e928 0b3e
000002d0: 2bc7 76bd 881b 8b3d 93a3 953d 1aff 34be
000002e0: 018a 38bd d76f 93bd 1e44 07be 2368 533d
000002f0: 31ba e83b d5d2 5bbe be59 47be a035 57bd
00000300: 2ca1 8bbe 4883 9f3c 517a 893c 8557 08be
00000310: fdc7 b1bd 1a19 f4bd fbf3 b3bd 099d fb3c
00000320: 3cc6 b8bd fea8 e5bd aff9 3bbc 7354 edbd
00000330: 11d4 acbd f216 02bc 269d 07be 1bfe e5bd
00000340: 3642 943c 1d1b d13d 2027 d0bd f45a ba3d
00000350: 5b25 1c3e c87a 5cbd 8a8c 2fbe 3b20 2b3d
00000360: 0a0a 3d3e 7b9f d439 71d7 df3c 6f22 243e
00000370: a107 063e ca86 383d 2511 853e e0ce 813e
00000380: f44a 363e 9077 2d3e 528c 663d 8cbf 323e
00000390: 6724 823c 7533 2f3e ebb6 223e 8be9 d4bd
000003a0: 0bbb b53d baa6 b33d b50d 1cbe c673 1fbc
000003b0: 7219 ccbc 3666 28be f466 35bd b914 87bd
000003c0: 078f 073e 36df c63c 747b 84bb e10b 923e
000003d0: 70c6 e53d 7d17 d93e 6651 863e 8823 e03d
000003e0: 4b5e c03e 5c49 2abd 3c71 593e 076f 703e
000003f0: 3b1c f9bd a60d 23bd 345c b13c aab5 f2bd
-0.0043345895 0.10772065 0.21957576 0.1492686 0.11307134 0.23928395 0.1768739 0.18775564
0.07567367 0.13902687 0.19842464 0.030375414 0.19206709 0.096177 -0.0647121 0.038259253
0.05268548 -0.16435292 -0.1469334 -0.21514447 -0.039679375 -0.16257405 -0.107750565 -0.0873409
-0.16700532 0.038740955 0.026676795 0.10740921 0.20194925 0.17165373 0.0047953255 0.2350521
0.09310249 0.18559548 0.003057186 -0.15486708 -0.06224965 0.036990736 -0.043984216 -0.15372156
-0.07608473 0.043434408 0.10558497 0.11741056 0.018337335 0.108441405 -0.012837256 -0.06966652
-0.09777893 0.13477798 0.022432646 0.07028351 -0.055460967 -0.031967245 0.21402493 0.22752944
0.16121416 0.1990678 0.13008988 0.05016909 0.2149389 0.20663068 -0.16877295 0.028627893
0.17334533 0.049007505 0.2079178 0.18515009 0.1184844 0.2776435 0.057404928 -0.12098007
0.067891456 -0.083997 -0.03691989 0.01892253 0.098180935 -0.104753025 0.005561009 0.093718365
0.07592992 0.0010827301 -0.026407683 -0.06519989 0.0827244 -0.018257026 0.04812266 -0.090753555
0.051085178 -0.0051991777 0.019015478 -0.05823392 -0.11606854 -0.11378238 -0.06462961 -0.04380878
-0.06247839 0.062493198 -0.09422133 0.020230494 -0.004072341 -0.009121127 -0.114923015 0.027323063
-0.11632814 0.024295025 -0.050469853 -0.02812025 -0.109302506 -0.005313908 0.086064585 -0.014969773
-0.118984535 -0.06723398 -0.077993885 -0.04450131 -0.07574705 -0.116655916 -0.058382124 0.0355706
-0.108146496 0.06816701 -0.06416728 -0.117166765 -0.03929077 0.03647042 -0.11197223 -0.10524773
0.06567459 0.06925297 -0.08157538 0.08578524 0.08097162 0.08311009 -0.06428597 -0.11602728
0.060060974 -0.070135854 0.08104072 0.008665906 -0.12770529 -0.12730865 -0.08913524 -0.07773936
0.36078578 0.3940112 0.18376735 0.3013226 0.29768825 0.26421663 0.41044533 0.24089156
0.11243472 0.25051272 0.37791896 0.16611452 0.31169853 0.13807233 0.012555102 0.1653155
0.15466493 0.1569918 0.074602485 0.059576232 -0.039323766 0.052619606 0.00012257461 -0.07084238
0.089766055 -0.08189893 -0.047370583 0.41559857 0.3379189 0.2711076 0.37425375 0.51853174
0.09001989 0.3084036 0.40327194 0.13589825 -0.060248535 0.067923605 0.0730659 -0.17675439
-0.045053486 -0.07199066 -0.13209578 0.051612984 0.007102274 -0.21467145 -0.19467828 -0.052541375
-0.27271402 0.01947178 0.016781958 -0.13314636 -0.08680723 -0.1191885 -0.0878677 0.030714529
-0.09022185 -0.11213873 -0.011473103 -0.11588373 -0.08438886 -0.007940041 -0.13243541 -0.112301074
0.018097978 0.102102496 -0.101637125 0.09099379 0.15248625 -0.05382803 -0.17143455 0.041778784
0.18460861 0.00040554613 0.02732441 0.1602876 0.13088848 0.04505042 0.25989643 0.25353146
0.1780203 0.1694014 0.056286164 0.17455882 0.015886499 0.17109473 0.1589009 -0.10396107
0.08873566 0.08772035 -0.15239604 -0.009732192 -0.024914477 -0.1644524 -0.044287637 -0.065957494
0.13238154 0.024276357 -0.004043037 0.28524688 0.112194896 0.42400733 0.26233977 0.10944277
0.3757194 -0.041573867 0.21234602 0.23479854 -0.12163588 -0.039807938 0.021650411 -0.11851056

main.3.bias f4 [4]
00000000: f03f ac3d adbb 02be c87c 063e fe66 043e
0.084106326 -0.12766905 0.13133538 0.12929913

main.7.weight f4 [128, 324]
00000000: 060c a93d 55e0 bc3c 526e 593c 326e 42bd
00000010: dc74 b83d 1c7f 153d eed6 193d 5afd 8b3d
00000020: e238 6a3c 601e 94bb d639 2c3a 37d0 52bc
00000030: 4044 e93c 97cd 56bd 5585 2b3d 3123 16bc
00000040: 5a2f 3bbd bd05 11bd 01cd cf3b 980a 79bd
00000050: 3fce a7bc 074e 6e3b 4d4c f83c 6e75 b0bc
00000060: 87ed bcbc ae91 31bd b0be 9dba 9f4b c93b
00000070: 4476 3bbd 127f b8bc ac8b f73b ccc5 bebc
00000080: 8598 473c cfb1 06bd b179 873c 46b3 2d3d
00000090: b98c b03b 4b90 a03d eb84 3d3d d669 e8bb
000000a0: 2e8d 7a3d ac6c 2f3d 2c09 24bd 7805 303d
000000b0: 405c 943d 1c42 4cbc 69de dc3a 2747 c7bc
000000c0: 3053 a83c f295 ed3c 3375 3d3c 3cd2 493d
000000d0: 6e49 563c e5b4 83bb 1b1c e53c 9be1 873a
000000e0: 5725 a73d a80f ce3d 0e12 b2ba b1e5 6a3d
000000f0: f8c1 413d 639e 67bd caf1 d93a 98e6 8dbd
00000100: 822b bc3d d0a9 28bc bda3 ac3c 5c74 46bd
00000110: 34d4 e3bc d96c a5bc f4a8 a63c d20d ecbb
00000120: c897 a1bd 1b92 2f3d 5e48 8a3d 9289 5d3d
00000130: bed1 4a3b d05a 1dbd 473d 12bd bce5 333a
00000140: a4cd 84bc 213e 093d 5bc6 503d f0c8 e3bb
00000150: 6fc0 5a3d c2f7 983c 39f2 493d df3d 023d
00000160: 2005 96bc d20e a0bc 40a8 61bb 1df2 f0bc
00000170: 7514 4ebd b929 3fbd 9c4f 3dbc b8e9 54bc
00000180: d8c4 c53b c02a 3e3a 045e 99bc ffdd 323d
00000190: 315a 313d 6fda 3c3d bed6 0dbd 6247 48bd
000001a0: 71f1 4c3d 67e4 16bd 1d80 303d 6ab7 bcbc
000001b0: c0ca 2abd 8b08 fbbc b1a7 233d 844b 5bbd
000001c0: 7aee 12bd 44a4 acbc d91d 1c3d 4d79 463d
000001d0: 9269 d23c c27f d43c b002 1a3b ef0b 083d
000001e0: 727d 45bd 9d9a 593d c1b7 3c3d ee12 52bd
000001f0: 5037 24bb ff58 2e3d 285a f03b be9d 863c
00000200: a4bb 11bd c948 363d 1a8a e03c 6c4a 49bc
00000210: 11ba 46bc 78fe 2abc bbaf 1a3d fdb4 d6bc
00000220: 37c1 033d 82f5 a43c 941d 2bbc d386 543d
00000230: 18cd ea3b 21fb 433d ce4d f8bc 9cc0 683c
00000240: 59b5 4ebd 5a94 883c ce70 93bc c5d8 2f3d
00000250: 3351 623d 7095 e03b 17ba 013d c283 49bd
00000260: 725d 80bc c4b9 37bd 12e5 51bd 606d b3bc
00000270: 3961 54bd 0c20 19bd 2b53 3e3d 82e0 aa3c
00000280: 0992 373d ce90 54bd fd2e 15bc 5f3a 40bb
00000290: 9125 6f3c 267c 533d 5031 0bbd 77f3 4b3d
000002a0: 61ee 243d 307a b73d a3a5 23ba b4b8 353d
000002b0: b2a6 c6bc c4c5 bf3d d277 833b 969b 12bd
000002c0: 9d64 fd3c b9df ab3b 8aa6 c43b 9ed8 fcba
000002d0: d3c6 513c 3fbc 9abd 84a4 643d 4f5d 17ba
000002e0: b923 083d a115 ec3c 2c1b 47bc 7613 313d
000002f0: 9a1b e1bb 331a 2fbd 9e25 5c3c 3824 163c
00000300: 5e98 493d 7211 1ebc 2c2b ab3b 4db2 5c3d
00000310: fae7 563d 7b10 d53d 1e75 643c 9357 243c
00000320: bfc7 123d b7fd 3f3d abaf 013d 7cb0 543d
00000330: 60ec 23bd 5492 c93c 791e c53d 6835 d6bc
00000340: 0c1d a73d 20a1 b3bd b988 11bb 294b 223d
00000350: 6f78 913b d483 2b3d cc4c db3c 11ea 8fbc
00000360: d6c7 a2bc cf02 4cbb ed54 03bd 0411 3b3d
00000370: 6cac e7bc c6eb 5f3d f848 26bd a27b 743c
00000380: 1305 7b3d de95 09bc b432 913d dbf5 b3bc
00000390: 22cd 6c3d e603 e4bc 0624 b63c 4024 11bd
000003a0: 4885 4c3d abfc 393d 3cd5 183d f067 09bd
000003b0: a809 f2bb 4cf5 063d 75f5 143c 407a afbc
000003c0: 40de 42ba 0529 7d3c 9140 12bd 8174 b9bd
000003d0: 06ba e63b 127b a5bb b47f e73c fac7 b2bb
000003e0: d220 47bd 8b56 b1bc 1e9c 1ebd 8034 43bd
000003f0: 6976 68bc 5eb3 403c 1499 8f3d f61e 243d
0.082542464 0.023056189 0.013270931 -0.04746837 0.09006664 0.036498174 0.03755849 0.06835432
0.0142957885 -0.0045202225 0.00065698975 -0.012867025 0.028474927 -0.05244216 0.041875202 -0.009163664
-0.045699455 -0.035405863 0.006341577 -0.06080112 -0.020484088 0.0036362426 0.03030982 -0.02154037
-0.02306248 -0.04335182 -0.0012034979 0.006143048 -0.045767084 -0.02252153 0.007554492 -0.023287676
0.01218236 -0.032884415 0.01653752 0.042407297 0.005387869 0.07840022 0.04626934 -0.0070926948
0.061169796 0.042828247 -0.04004781 0.042973965 0.07244158 -0.012466934 0.0016850951 -0.02432592
0.02054748 0.029002164 0.011563587 0.04927276 0.01307903 -0.004019367 0.027967503 0.0010366918
0.08161419 0.1006158 -0.0013585703 0.057347957 0.047304124 -0.056547534 0.0016627845 -0.06928748
0.09187986 -0.010294393 0.02107417 -0.048450813 -0.027811147 -0.020193504 0.020344235 -0.007203796
-0.07890278 0.042863946 0.06752084 0.054086275 0.003094777 -0.038416684 -0.03570297 0.0006862541
-0.016211338 0.033506516 0.050970417 -0.006951444 0.053406175 0.018672828 0.049303267 0.031797286
-0.01831299 -0.019538317 -0.003443256 -0.029412324 -0.050312478 -0.04667065 -0.011554625 -0.012995176
0.0060354285 0.0007254295 -0.018721588 0.043668743 0.043298904 0.046106752 -0.034628622 -0.0488962
0.050034944 -0.036838915 0.04309093 -0.023036677 -0.041697264 -0.030643722 0.039954845 -0.053538814
-0.03587196 -0.021074422 0.038114402 0.048455525 0.025685105 0.025939826 0.0023500137 0.033214506
-0.048215337 0.053125966 0.04607368 -0.051287584 -0.0025057383 0.042565342 0.007334966 0.01643264
-0.03557934 0.044503007 0.027409602 -0.01228581 -0.012129323 -0.010436647 0.037765246 -0.026209349
0.032166686 0.020136598 -0.010444064 0.05188639 0.0071655624 0.047846917 -0.030310538 0.014206078
-0.050465915 0.016672302 -0.017998125 0.042931337 0.05525322 0.006853752 0.03167161 -0.04919792
-0.015669558 -0.044854894 -0.05124385 -0.02190274 -0.05185053 -0.037384078 0.046466034 0.020859007
0.044817004 -0.05189591 -0.009105441 -0.0029331667 0.014596359 0.05163207 -0.033982575 0.049792733
0.0402664 0.08958852 -0.00062426383 0.0443656 -0.024249408 0.09363893 0.0040120864 -0.03579291
0.030931765 0.0052451757 0.0060012983 -0.0019290631 0.012803751 -0.07555436 0.055820957 -0.0005774097
0.033237193 0.028818907 -0.012152474 0.04323145 -0.0068697454 -0.042749595 0.013436703 0.009163909
0.049217574 -0.009647714 0.0052236523 0.05388098 0.052467324 0.10403534 0.013943939 0.010030645
0.035835024 0.04687282 0.03166167 0.05192612 -0.040020347 0.024605907 0.09624953 -0.026148513
0.08159837 -0.087709665 -0.0022206737 0.03962246 0.0044394056 0.041873768 0.026770018 -0.017567666
-0.01987068 -0.0031129604 -0.032063413 0.045670524 -0.02828046 0.05466821 -0.040596932 0.0149220545
0.061284136 -0.0083975475 0.07089749 -0.021967819 0.057812817 -0.02783389 0.022233974 -0.03543496
0.049931794 0.04540698 0.03731273 -0.03354639 -0.007386405 0.032948777 0.009091725 -0.021420598
-0.00074336305 0.015451674 -0.035706107 -0.090554245 0.0070412187 -0.0050500715 0.028259136 -0.005455968
-0.048615284 -0.021647712 -0.038723104 -0.04765749 -0.014188387 0.0117615145 0.07011619 0.04006859

main.7.bias f4 [128]
00000000: 62fe 89bd ff6a d73c 79b5 33bd d811 cebd
00000010: a297 de3c 9fcd cbbd 8306 0f3e f478 81bd
00000020: 94a6 aabd 25f6 bcbd 1d2e 31bd 626d 89bd
00000030: 3cab 4dbd 29f7 163e 9348 d4bd 9cdc 263e
00000040: 0b9a 9abd 85dc 2a3e e30c 85bd 13c8 45bc
00000050: d71e 2b3e 8b3d 333e 912c 74bd cebc c03c
00000060: 67eb d13d ef62 583e 08f6 7d3d e63a 6e3d
00000070: ce2f c5bd e3c5 23bd 1278 0b3e 9863 97bd
00000080: 4f51 86bd 794b 523e 8ec2 42bd 94b7 303e
00000090: d218 95bd ba1c cc3d 7723 c8bd 9d18 2ebd
000000a0: f684 2ebd 6b98 4a3e a287 173e d8bb 4cbd
000000b0: 715e 613d 7041 a2bd 8096 4a3e bde6 bbbc
000000c0: 140d aa3b e5cc 333e c8d0 443d 1bd8 21bd
000000d0: 258b ffbc e03b 193e 40fb 123e 1954 bfbd
000000e0: faf7 2c3e 5907 4ebd efe1 043e ff49 153d
000000f0: 8f30 68bc dd4e 783e 289f 2cbd b4b8 5b3e
00000100: 5172 32bc fc4f 0bbc 21df 8cbd 5b75 5a3e
00000110: c535 353e a397 b5bd fa01 343e 2550 39bc
00000120: 96bd 113e 06fc 0b3e 58e8 75bd 9585 463e
00000130: 4fea 1fbd 6850 263e 1d79 76bd 2ae0 963c
00000140: 6421 75bd 3d98 423d bb77 a63d 3a9f 0dbd
00000150: 044b 1e3e d3b9 95bd 20a1 b9bd 6ccc 55bd
00000160: 19b0 81bd 5be7 d8bd f7e0 bebc f00d 4bbd
00000170: 0d8d 0fbd caa4 713e 8cb1 ddbd 2d6d b8bd
00000180: a36a 2a3e 4e48 3b3a 5ccf 2c3e f535 ae3d
00000190: 740b 68bd 25b8 7abd e5ef a2bd 9439 ca3d
000001a0: 3d74 ea3d b922 b93d 6d96 27bd 5f98 203e
000001b0: de00 d03d 6392 debc 9a0c 1a3e d2e5 c3bd
000001c0: 94a4 88bd 6cd5 2e3e dd5f 113e 6580 223e
000001d0: c366 babd bfaa 8bbc 61d2 70bc 65a3 183e
000001e0: dc54 e93d fc1c 0b3d 93fa 163e 846a aebd
000001f0: 582d 6f3d ebb2 b03c e932 23bd 1130 1dbc
-0.06737973 0.026296137 -0.043874238 -0.10061997 0.027171914 -0.099513285 0.13967328 -0.06321898
-0.083325535 -0.09226636 -0.043256868 -0.06710316 -0.05021213 0.14742722 -0.10365405 0.16295093
-0.075489126 0.16685684 -0.064965986 -0.012071627 0.16710983 0.17503946 -0.059612814 0.02352753
0.102499776 0.2113149 0.06200221 0.05816164 -0.09628259 -0.03998364 0.13620022 -0.07392043
-0.06558477 0.20536603 -0.047548823 0.1725753 -0.07280125 0.09966417 -0.097723894 -0.04250394
-0.04260727 0.19784705 0.14797834 -0.04998383 0.055021707 -0.079226375 0.19783974 -0.022937173
0.0051895473 0.1755863 0.04805067 -0.039512735 -0.031194279 0.14964247 0.14353657 -0.09342212
0.1689147 -0.050299976 0.12976812 0.03644752 -0.0141717335 0.24248834 -0.04214397 0.21457177
-0.010891513 -0.0085029565 -0.06878496 0.2133383 0.17696293 -0.08866813 0.17578879 -0.011310612
0.14232478 0.13670358 -0.060036033 0.19386895 -0.039041813 0.1624161 -0.060174096 0.018417437
-0.059846297 0.047508467 0.081283055 -0.03457568 0.15458304 -0.07310834 -0.09063935 -0.052196905
-0.06332416 -0.105910026 -0.023300631 -0.04957384 -0.035046626 0.23598018 -0.1082488 -0.09005199
0.16642241 0.0007144258 0.16875976 0.08506385 -0.056651548 -0.06121077 -0.079559125 0.098742634
0.11447952 0.09039826 -0.04091494 0.15683125 0.101564154 -0.027169412 0.1504387 -0.09565319
-0.06672016 0.17073601 0.14196725 0.15869291 -0.091016315 -0.017049192 -0.014698596 0.1490608
0.11393139 0.03396319 0.14744024 -0.0851641 0.058392853 0.02156969 -0.039843474 -0.009593979

main.9.weight f4 [1, 128]
00000000: 2db6 d5bd daa9 653e c8ea 43bd 7f9f eebd
00000010: de42 d03e 7b51 45be 6439 9c3e 5b3f 28bd
00000020: 7797 a3bd ab82 ddbd a34d 0abd 7912 a3bd
00000030: a49b 4dbc c992 103f 64af adbe e4b9 a03e
00000040: 897e f8bd 303b f3be a749 313e c5ee 43bd
00000050: 7c1c 233e b684 b03e 893b 873e fa7c f43e
00000060: 8ce8 2a3e 954c bc3e dc05 0ebf fafe ed3e
00000070: 0b9e 02be f706 bcbe a124 cd3e 3874 0abe
00000080: 9723 963e 9e94 973e 3d20 d5bc e17b e53d
00000090: f912 8dbd b964 c03e a7e2 f5bd 1e1e ea3e
000000a0: 5923 52be eee8 953e dc83 403e eefe 6c3d
000000b0: 33b4 d0be 562d dbbd 8c85 2f3f 385b c83e
000000c0: 1909 2e3e 50e2 843d 69ea b73e d605 b0bd
000000d0: afcd d53e 230a c73e 1943 843e 84bf 9bbe
000000e0: 7e77 ca3e 218e 8dbd 3e5c 203e ad9a a23e
000000f0: 153e 4cbe 3693 9e3e 36a6 92bd 7055 ca3e
00000100: 70de 903e 6361 e3be 2c9e e0bd cc70 bf3e
00000110: 77fc 903e ee87 20be 51e9 ac3e ca1e 933e
00000120: 34f0 c93d 6da9 2d3e fce3 0bbf 4f7a dd3e
00000130: a744 1bbe 09ce b43e 3d27 00be 133c bb3e
00000140: 9f8d 24be 617f 593e 34db b73e 6b90 bcbe
00000150: 259d 123e 7d1f a7bd 649a b3be d2ea bfbe
00000160: f76d 263c f38d f7be 8b83 c9be ecc0 1abe
00000170: 361f 69be 7aea bd3e 7eac 7dbe f908 c6bd
00000180: 631b 323e 44f4 c3be 7673 be3e b0d2 743e
00000190: 8008 debd 22c2 90bd 1d0b cebd d38b 1dbf
000001a0: 0a14 cf3e e589 a03e 354e febe 825b a83d
000001b0: ed69 343e 7f84 7fbe c53c 863e a506 b93e
000001c0: a362 95be 06c1 9d3e cd86 b93e 0ec8 a33e
000001d0: 001f 42bd 9bdc 983e db84 03bd 2703 953e
000001e0: 82b4 a73e 8e74 c33e ce31 253e fab7 1cbe
000001f0: 3d4e d5be bb9b e2be 5e7f e1bc d8ee adbc
-0.10435138 0.22428074 -0.047831327 -0.11651515 0.40676016 -0.19269364 0.30512536 -0.041076045
-0.07987874 -0.108159386 -0.033765446 -0.07962508 -0.012549315 0.56473976 -0.33922875 0.31391823
-0.1213351 -0.47506094 0.17313252 -0.04783513 0.15928835 0.3447625 0.2641261 0.477516
0.16690272 0.36777177 -0.5547769 0.46483594 -0.12755601 -0.36724064 0.40067008 -0.13520896
0.29324028 0.29605573 -0.026016349 0.11205269 -0.06888384 0.37576845 -0.12006121 0.45726103
-0.20521297 0.29279274 0.188003 0.057860307 -0.4076248 -0.107020065 0.6856315 0.39132094
0.16995658 0.06488478 0.35921028 -0.08594863 0.41758487 0.3887492 0.2583244 -0.30419552
0.3954429 -0.069118746 0.15660188 0.31758633 -0.19945557 0.30971688 -0.071606085 0.3951831
0.28294706 -0.44410238 -0.10967669 0.37390745 0.28317615 -0.15676853 0.33771756 0.28734428
0.09860268 0.16959162 -0.5464475 0.43257377 -0.15162908 0.35313442 -0.12514968 0.3656927
-0.16069649 0.21239997 0.35909426 -0.36828932 0.14317758 -0.08160303 -0.35078728 -0.3748384
0.010158054 -0.48350486 -0.39358172 -0.15112656 -0.22765812 0.37092954 -0.24772832 -0.0966968
0.1739326 -0.38272297 0.37197465 0.23908496 -0.10841465 -0.07068278 -0.100607134 -0.6154148
0.40444976 0.31355205 -0.49669042 0.08220579 0.17618532 -0.24952887 0.26218238 0.36137882
-0.29176816 0.30811328 0.36235657 0.31988567 -0.047392845 0.2985581 -0.032109123 0.29103968
0.32754904 0.38174862 0.1613228 -0.15304556 -0.41661254 -0.44259438 -0.027526554 -0.021232054
